hoho/outputs/CartPole-v1/20220409-214055/models/dqn_checkpoint.pth (torch, 71511 bytes, 6 tensors)

fc1.weight f4 [128, 4]
0	0x3deaead3	0.114705704
1	0xbe92e7da	-0.28692514
2	0x3f03c1a5	0.51467353
3	0x3f1b8e0c	0.6076362
4	0x3e848697	0.25883934
5	0x3e3588c3	0.17727952
6	0x3ee95f2a	0.45580417
7	0xbd6f0fcb	-0.05836467
8	0x3e8b45e7	0.2720177
9	0xbc64f81e	-0.013975171
10	0xbee3401c	-0.4438485
11	0xbe290fe0	-0.16509962
12	0x3e3bdc48	0.1834575
13	0xbe9c1660	-0.3048582
14	0xbd9a0550	-0.075205445
15	0xbe908da8	-0.28233075
16	0xbcb6f2a7	-0.022332503
17	0x3eea20a1	0.4572802
18	0x3ea4dd44	0.32200062
19	0x3dff6e0c	0.12472162
20	0xbe7f7731	-0.24947812
21	0x3da06a8e	0.07832824
22	0x3e5d435e	0.2160773
23	0x3f122094	0.5708096
24	0x3eedf974	0.4647938
25	0xbeb7d092	-0.35901314
26	0x3da7df5a	0.08196898
27	0x3ebc007b	0.36719117
28	0x3cbdd59b	0.023173144
29	0xbdf8222b	-0.12115892
30	0xbf3d9503	-0.740555
31	0xbf0572eb	-0.52128476
32	0x3f0946e6	0.5362381
33	0xbe343c85	-0.17601211
34	0xbee0d2b6	-0.4391076
35	0x3e0131e3	0.12616687
36	0xbeafc0a4	-0.3432666
37	0x3eb2030a	0.34767944
38	0x3f75018c	0.95705485
39	0x3ecd819e	0.40137953
40	0xbe530aa3	-0.20609526
41	0xbe943664	-0.28947747
42	0xbf12fc44	-0.57416177
43	0x3e31d5e0	0.17366743
44	0x3e813762	0.25237566
45	0x3e3d19f8	0.18466938
46	0xbebbbbea	-0.36666805
47	0x3dc583b5	0.09644262
48	0xbc789c96	-0.015174052
49	0xbd423829	-0.04741684
50	0x3dc1d22b	0.094639145
51	0x3ea8bb6b	0.3295549
52	0xbe3cc485	-0.18434341
53	0x3e0bc4a4	0.13649231
54	0xbe84335e	-0.2582044
55	0x3d199287	0.037493255
56	0xbf0969c8	-0.53677034
57	0xbef6a680	-0.48173904
58	0x3e5a26bf	0.21303843
59	0x3ee0f0a5	0.43933597
60	0xbe7fa043	-0.24963479
61	0x3e95fddd	0.29295245
62	0xbe955ab4	-0.29170763
63	0x3c187694	0.009305615
64	0xbdfb08e7	-0.12257557
65	0x3e89f363	0.26943502
66	0x3e139c21	0.14415027
67	0xbda4faaf	-0.080556266
68	0x3e9149c3	0.28376588
69	0xbe6b4a56	-0.22977576
70	0xbd8b8b5b	-0.06813689
71	0xbeb07239	-0.34462145
72	0xbecd678d	-0.40118065
73	0xbd482069	-0.048859034
74	0xbf08371b	-0.53209084
75	0xbe3c4bdd	-0.18388315
76	0xbced10b3	-0.028938627
77	0xbef1bf7c	-0.47216403
78	0xbdd48ab5	-0.10378019
79	0xbe0cfdac	-0.13768643
80	0x3e31056e	0.17287228
81	0x3e3a0fb0	0.18170047
82	0x3ee164d3	0.44022235
83	0xbe3b1519	-0.18269767
84	0xbeb8d386	-0.3609888
85	0xbe7a0cd2	-0.24418953
86	0x3f188b47	0.5958752
87	0x3e636e91	0.22210146
88	0xbe567dcf	-0.2094643
89	0xbeb12605	-0.3459932
90	0x3f78492e	0.96986663
91	0x3eee7b3c	0.46578395
92	0x3de1d5a2	0.11027075
93	0xbeba6610	-0.36405993
94	0x3edd2134	0.43189394
95	0xbe9ebe12	-0.31004387
96	0x3f09bd22	0.5380422
97	0x3ee48ec9	0.44640186
98	0x3ee3b451	0.44473508
99	0xbed51a20	-0.41621494
100	0xbeb5f487	-0.35538122
101	0xbe96c75b	-0.2944897
102	0xbe115053	-0.14190798
103	0xbf044904	-0.51673913
104	0x3d01e68f	0.03171402
105	0x3efb7c5d	0.4911832
106	0x3e666c71	0.22502305
107	0xbf04dff9	-0.51904255
108	0x3ef54ec3	0.47911653
109	0x3e3b2ddc	0.18279213
110	0xbf47905c	-0.7795465
111	0xbeaf5def	-0.34251353
112	0x3f14a57b	0.58065003
113	0xbf045ba3	-0.51702327
114	0xbf323e9d	-0.6962679
115	0x3ddebf6b	0.10876354
116	0xbf1ee569	-0.620688
117	0x3ed94a3c	0.4243945
118	0x3e60d911	0.21957804
119	0x3f11084f	0.566533
120	0x3e0a03ff	0.13478087
121	0xbeb246e3	-0.34819707
122	0x3e9e8b62	0.30965716
123	0xbeb59ca4	-0.3547107
124	0x3e859741	0.2609196
125	0xbeaa411b	-0.33252797
126	0xbef1b3f1	-0.47207597
127	0x3ef61c01	0.4806824
128	0xbdbfbf48	-0.09362656
129	0x3e234297	0.15943371
130	0xbe5b874a	-0.21438327
131	0xbe1843bb	-0.14869587
132	0x3ee60841	0.44928172
133	0x3ec7ac9f	0.38998887
134	0xbf2290b1	-0.6350203
135	0xbee47dfe	-0.44627374
136	0xbd973765	-0.073836125
137	0x3da1ac0e	0.07894145
138	0x3f577329	0.84160095
139	0x3e9651ce	0.29359287
140	0x3cba34a4	0.02273018
141	0xbe6ceb89	-0.23136725
142	0xbf1a5087	-0.60279125
143	0xbe0fa0d1	-0.1402619
144	0x3e69a564	0.22816998
145	0x3e23548d	0.15950222
146	0x3dde714e	0.10861455
147	0xbced46a5	-0.02896435
148	0xbea651a7	-0.3248417
149	0xbebf9a78	-0.37422538
150	0xbee85243	-0.4537526
151	0x3c0651b4	0.0081981905
152	0x3ed2664d	0.41093674
153	0x3e92ad69	0.28647926
154	0x3f4e307f	0.8054275
155	0x3ee14a7d	0.44002143
156	0x3e5d6dbc	0.21623892
157	0xbe6527dc	-0.22378486
158	0x3ddd9d30	0.10820997
159	0xbd57a8a0	-0.052651048
160	0xbeee6413	-0.46560726
161	0x3e791c67	0.24327241
162	0xbed47954	-0.41498816
163	0x3e812b10	0.25228167
164	0x3e444a7f	0.19169043
165	0xbd7cc356	-0.061709724
166	0x3ec06597	0.37577507
167	0x3eefa523	0.46805677
168	0x3e135a8b	0.14390008
169	0x3e29a471	0.16566636
170	0xbcddf1a6	-0.027092766
171	0xbf08445e	-0.5322932
172	0xbd89212e	-0.06695782
173	0xbe16e46c	-0.14735574
174	0xbe7a626c	-0.24451607
175	0xbe19e782	-0.1502972
176	0xbe72fdd0	-0.23729634
177	0x3ebfaa8b	0.374348
178	0xbea8f660	-0.3300047
179	0x3ee3ac7a	0.44467527
180	0xbdac3cb3	-0.08410015
181	0x3e09c94a	0.13455692
182	0xbea07d71	-0.31345704
183	0x3c954dde	0.018225607
184	0xbec526d9	-0.385062
185	0x3e80a5c5	0.25126472
186	0x3e91ceb1	0.28478006
187	0x3f03a338	0.5142093
188	0xbec4e0ca	-0.3845275
189	0x3e89401b	0.2680672
190	0x3e001aec	0.1251027
191	0xbe13a535	-0.1441849
192	0xbef6544f	-0.48111197
193	0x3eb634a9	0.35587052
194	0xbea19d99	-0.3156555
195	0x3e959dcc	0.29221952
196	0x3dbdd820	0.09269738
197	0xbe0bf904	-0.1366921
198	0xbd0b4090	-0.03399712
199	0xbdaf1460	-0.08548808
200	0x3ee37d75	0.44431654
201	0xbec13581	-0.37736133
202	0xbe9e560b	-0.3092502
203	0xbe04f795	-0.1298507
204	0x3e6c8f3e	0.23101518
205	0x3edfe7d3	0.43731555
206	0x3f35c7c8	0.71007967
207	0x3f1b365e	0.6062983
208	0xbde5ae51	-0.11214889
209	0x3d0b5ef0	0.034026086
210	0xbe8d6ee7	-0.27623674
211	0xbe32aede	-0.17449519
212	0x3ea30352	0.3183847
213	0xbecb17e4	-0.39666665
214	0xbf354b74	-0.7081826
215	0x3edb9c1c	0.4289254
216	0xbf27824a	-0.6543318
217	0xbe162ead	-0.14666243
218	0x3f291e25	0.6606162
219	0xbce9293c	-0.028462045
220	0xbe61e165	-0.22058637
221	0x3ebd390c	0.36957586
222	0x3e1f5585	0.15559967
223	0xbd7f303f	-0.06230187
224	0x3dfcf217	0.123508625
225	0xbe118f6d	-0.14214869
226	0x3f39783a	0.72449076
227	0x3e33f480	0.17573738
228	0xbe4792ed	-0.19489641
229	0x3eebf232	0.46083218
230	0x3efd6ed8	0.4949863
231	0x3ddfe0cc	0.109315485
232	0x3eed9d38	0.4640901
233	0x3ec407d1	0.38287213
234	0x3dabda90	0.08391297
235	0x3e350943	0.17679314
236	0x3eb64a33	0.35603485
237	0xbe87c3cb	-0.26516566
238	0xbe7e8a4a	-0.2485744
239	0x3e8f4fc7	0.27990553
240	0x3e88c767	0.26714632
241	0x3eb1edfb	0.34751877
242	0xbef8a535	-0.48563543
243	0x3ed68b9a	0.41903383
244	0xbe43e6b2	-0.19130972
245	0xbe5559ed	-0.20835085
246	0xbeb2eea9	-0.34947708
247	0xbe6ef786	-0.2333661
248	0xbe00757a	-0.12544814
249	0xbed63b7a	-0.41842252
250	0x3f21a9d3	0.63149756
251	0x3ebaad53	0.3646036
252	0xbeac64fd	-0.33670798
253	0xbe96b513	-0.29435024
254	0xbe2fdc69	-0.17173924
255	0xbddc1ea8	-0.10748035

fc1.bias f4 [128]
0	0xbdbce6c5	-0.09223703
1	0xbeef0a4c	-0.46687543
2	0x3e9fe4d1	0.3122926
3	0xbefd02a4	-0.49416077
4	0xbf0b9535	-0.54524547
5	0xbea3957c	-0.31949985
6	0x3f1bc09b	0.6084077
7	0xbe57305c	-0.21014541
8	0x3f004397	0.50103134
9	0xbe0d01f6	-0.1377028
10	0x3e5931ea	0.21210447
11	0xbea0feec	-0.3144449
12	0x3d2d19f2	0.04226107
13	0xbe4fa246	-0.20276746
14	0xbc9e961e	-0.01935869
15	0x3f12b0b3	0.5730087
16	0x3ec06078	0.375736
17	0x3f1f60ca	0.62257063
18	0x3e9ac391	0.3022733
19	0x3e93b765	0.28850856
20	0x3e3564d1	0.1771424
21	0xbea9729a	-0.33095247
22	0xbe9f91ae	-0.31165832
23	0xbef01dd2	-0.4689775
24	0x3d0526f3	0.032507848
25	0xbe0643b1	-0.1311176
26	0xbe8e9697	-0.27849266
27	0xbe3cd82e	-0.18441841
28	0x3c8fdf2d	0.017562473
29	0xbe454ce7	-0.19267617
30	0x3ed7afdb	0.42126355
31	0xbe685a9b	-0.22690813
32	0x3ee2fe4e	0.44334644
33	0xbe7b658d	-0.24550457
34	0xbe7def05	-0.2479821
35	0x3f0a3d86	0.5400013
36	0x3f21d56f	0.632163
37	0x3ed7a7c9	0.42120197
38	0xbe849fac	-0.2590307
39	0xbeefb8cc	-0.46820676
40	0xbe93c365	-0.28860012
41	0xbe20fd5d	-0.1572165
42	0xbec13306	-0.3773424
43	0x3f06d561	0.5266934
44	0x3ea11258	0.31459308
45	0x3e9cd85b	0.30633816
46	0x3ed47baf	0.41500613
47	0x3ee510e4	0.4473945
48	0xbeaaf04b	-0.33386454
49	0xbe90957e	-0.28239053
50	0x3ea3da0e	0.320023
51	0xbeb0121c	-0.34388816
52	0x3f1dfb1c	0.6171129
53	0xbd624e80	-0.055250645
54	0xbd2e427f	-0.042543884
55	0x3ef3044e	0.47464222
56	0xbd3495ea	-0.04408828
57	0x3f08a07d	0.53369886
58	0x3ebd0ff1	0.36926225
59	0x3e8c7e49	0.27440098
60	0x3e8abe9a	0.27098542
61	0xbed808b0	-0.42194128
62	0xbe7152c3	-0.23566727
63	0x3ec31351	0.38100675
64	0x3f0e5a70	0.55606747
65	0x3ea8205a	0.32837182
66	0xbe30a484	-0.17250258
67	0xbeb195f5	-0.3468472
68	0xbe92745e	-0.28604406
69	0xbe28cce7	-0.16484414
70	0xbea15546	-0.3151037
71	0x3c161051	0.009159164
72	0xbebbcb12	-0.36678368
73	0x3f0a68f5	0.540664
74	0xbf088114	-0.5332196
75	0x3ec9a160	0.39380932
76	0x3f2238b4	0.6336777
77	0x3eaccb5c	0.337489
78	0xbea0dca5	-0.31418338
79	0xbeff1c50	-0.49826288
80	0xbe2663e7	-0.16249047
81	0x3eeb88cb	0.46002802
82	0xbe9e2002	-0.30883795
83	0x3e2d9c75	0.16954215
84	0xbe813eab	-0.25243124
85	0x3e80a323	0.25124463
86	0x3e02fbeb	0.12791412
87	0x3e16c083	0.14721875
88	0x3e9ead10	0.3099141
89	0xbeae2226	-0.34010428
90	0xbeaf88b9	-0.34284
91	0xbe74a760	-0.23891973
92	0xbe785997	-0.24252926
93	0xbf0333d7	-0.51250976
94	0x3e966ec8	0.29381394
95	0x3e3556fb	0.17708962
96	0x3eb2b5fe	0.34904474
97	0x3ed08553	0.40726718
98	0xbe4462f7	-0.19178377
99	0x3e97282f	0.29522845
100	0x3dc4a71a	0.096021846
101	0xbda22133	-0.079164885
102	0xbe1e6936	-0.15469822
103	0x3e24460a	0.16042343
104	0x3f1515c2	0.58236325
105	0x3e350e5a	0.17681256
106	0xbe28d66d	-0.16488047
107	0x3ed4af3e	0.4153995
108	0xbe75c714	-0.24001724
109	0xbe849622	-0.25895792
110	0x3e42f667	0.19039308
111	0x3f229ba1	0.6351872
112	0xbeb76a2d	-0.35823193
113	0xbe158698	-0.14602125
114	0xbe89b266	-0.2689392
115	0x3c2f4215	0.0106969075
116	0x3efd94de	0.4952764
117	0x3ec6ae62	0.3880492
118	0xbe4c9ade	-0.19980952
119	0xbe00d45a	-0.12581006
120	0x3dbc4b7f	0.09194087
121	0x3e4f641e	0.20253035
122	0xbec81eaf	-0.3908591
123	0xbeb24f80	-0.3482628
124	0x3f1566ec	0.5836017
125	0xbe09d94f	-0.13461803
126	0x3ef65d0e	0.4811787
127	0xbeda6e1c	-0.42662132

fc2.weight f4 [128, 128]
0	0x3bd862a3	0.0066035553
1	0xbe4de258	-0.20105875
2	0x3dd6d888	0.10490519
3	0xbd5c1631	-0.0537321
4	0xbe2e463a	-0.17018977
5	0xbd04fdcd	-0.032468606
6	0xbb0eba93	-0.0021778687
7	0xbe1d0e89	-0.15337576
8	0x3d018b63	0.03162707
9	0xbe43b332	-0.19111326
10	0x3d9471c7	0.07248264
11	0xbdc6cb21	-0.097067125
12	0xbd82bd84	-0.063838035
13	0x3cba62d1	0.022752197
14	0xbcccee70	-0.02501604
15	0x3e2e83cd	0.17042466
16	0x3d6e226a	0.05813829
17	0x3e21cac6	0.15800008
18	0x3bdd7211	0.0067579825
19	0x3cecf4dd	0.028925354
20	0x3e1c3959	0.15256251
21	0xbe11c3fc	-0.14234918
22	0x3c79b6c8	0.015241332
23	0xbd923abf	-0.07140111
24	0x3d69841a	0.057010747
25	0xbda63959	-0.08116407
26	0xbd8c260b	-0.068431936
27	0xbd9866d0	-0.07441485
28	0x3e49481f	0.19656418
29	0xbe4fb209	-0.20282759
30	0x3df09b5f	0.11748385
31	0x3de39d45	0.11113981
32	0x3dcb478f	0.09925758
33	0xbd9115f8	-0.07084268
34	0xbe978911	-0.2959676
35	0x3d89cb57	0.06728237
36	0x3da9fb1a	0.08299847
37	0x3dbf647e	0.09345339
38	0xbe01a292	-0.12659672
39	0xbd250e80	-0.04029703
40	0xbda67e27	-0.081295304
41	0xbd1f8bbe	-0.038951628
42	0xbd9e910a	-0.07742508
43	0x3dd804d9	0.105477996
44	0x3c2a8dcc	0.010409784
45	0x3e126ff1	0.14300515
46	0xbb252965	-0.0025201675
47	0x3e2f9e13	0.17150144
48	0xbcfe4f0b	-0.03104355
49	0xbc3b1768	-0.011419155
50	0x3b2dca2a	0.0026518204
51	0xbe66ea5b	-0.22550337
52	0x3d0996f3	0.033591222
53	0xbc04334c	-0.008068871
54	0xbe3ac14c	-0.182378
55	0x3d7f1197	0.062272634
56	0xbe0d2ac4	-0.13785845
57	0x3e007d75	0.12547858
58	0xbb8c7f41	-0.004287631
59	0x3de32270	0.11090553
60	0x3d0af664	0.033926383
61	0xbe0603e8	-0.13087428
62	0xbd7ee0f7	-0.062226262
63	0x3dadc39f	0.084845774
64	0x3e370545	0.17873104
65	0x3dd33a04	0.103138
66	0xbdf81bed	-0.121147014
67	0xbd80ccf0	-0.06289089
68	0xbeb1ae22	-0.34703165
69	0xbd171940	-0.036889315
70	0xbe43a6d8	-0.19106615
71	0x3d1e7bc0	0.038692236
72	0x3dbcbbe5	0.092155255
73	0x3ce93ca8	0.028471306
74	0x3cbc65bb	0.022997728
75	0x3dcdb59c	0.10044405
76	0x3dcaa51b	0.098947726
77	0xbcb9ab80	-0.022664785
78	0xbe0e5253	-0.13898592
79	0x3e67c24b	0.2263271
80	0xbadfb621	-0.0017067828
81	0x3dc0c761	0.094130285
82	0xbe532dee	-0.2062299
83	0x3e41bb72	0.18919161
84	0xbe4f4162	-0.20239785
85	0x3d2d922e	0.042375736
86	0x3e4ec3e9	0.20191921
87	0x3e38aad3	0.18033914
88	0xbd6a81f5	-0.057252843
89	0xbe9952a5	-0.29945865
90	0xbe725ffc	-0.23669428
91	0x3c1a0a05	0.009401803
92	0xbe887a10	-0.26655626
93	0xbd348d1b	-0.04407988
94	0x3e22846f	0.15870832
95	0xbe9d1c4c	-0.3068565
96	0x3dc8b090	0.097993016
97	0x3c7e1d56	0.015509924
98	0x3c972637	0.01845084
99	0x3dc77df8	0.097408235
100	0xbde1050b	-0.1098729
101	0xbe3881c7	-0.18018256
102	0xbe66eeaa	-0.2255198
103	0x3d06dc07	0.03292468
104	0x3e1eec6f	0.1551988
105	0x3d4f57c2	0.0506208
106	0xbe8d3eaf	-0.27586886
107	0x3c8ffc22	0.017576281
108	0x3bc1d8a8	0.00591572
109	0xbd9c545b	-0.07633277
110	0x3e014a63	0.12626033
111	0x3da7565c	0.081707686
112	0xbe782a47	-0.24234878
113	0x3b5ae46c	0.003340031
114	0x3ea21f5a	0.31664544
115	0xbdfda4c9	-0.12384946
116	0xbb90e615	-0.004421959
117	0x3d09e59d	0.033666242
118	0x3e26ac9e	0.16276786
119	0xbe351d81	-0.17687036
120	0x3e4cdacb	0.20005338
121	0x3d08a1ee	0.033357553
122	0xbe338b0c	-0.17533511
123	0x3ca63de4	0.020293184
124	0x3e0721e3	0.1319652
125	0xbe6d1efd	-0.23156352
126	0x3e13662b	0.14394443
127	0xbdc2db93	-0.09514537
128	0xbdfd5e29	-0.12371475
129	0xbdbcf708	-0.09226805
130	0x3cde7cbd	0.02715909
131	0x3d42ef4e	0.0475915
132	0xbe2918f3	-0.16513424
133	0x3b0bd4b6	0.0021336502
134	0x3d94c5d2	0.07264294
135	0xbe39da07	-0.18149577
136	0x3e2238ac	0.15841931
137	0xbe0fc2f2	-0.1403921
138	0x3d5c0128	0.05371204
139	0xbc2a6484	-0.010399941
140	0xbd8f0340	-0.06983042
141	0x3d482e6b	0.048872393
142	0xbdd78c4c	-0.105248064
143	0x3d5f095a	0.054452278
144	0x3e01eeb6	0.12688717
145	0x3e1b3179	0.15155591
146	0x3bb24225	0.005440014
147	0x3d1abead	0.0377795
148	0x3cb26eff	0.021781443
149	0x3cb4a96d	0.022053445
150	0x3ce039e7	0.02737136
151	0x3d83101e	0.063995585
152	0xbd37a41f	-0.044834252
153	0xbdecc7f1	-0.11561573
154	0x3cd654ae	0.026163425
155	0xbd178056	-0.036987625
156	0x3e42ab8d	0.19010754
157	0xbe91328a	-0.2835887
158	0x3e015de9	0.1263348
159	0x3e02b7f6	0.12765488
160	0x3da40c78	0.08010191
161	0xbda4ef53	-0.0805346
162	0xbed2e11b	-0.41187367
163	0x3de649ef	0.112445705
164	0x3e2288c3	0.15872483
165	0x3cbf59cc	0.023358248
166	0xbe8522ea	-0.260032
167	0xbd96c08e	-0.07360946
168	0x3d8c8899	0.068619914
169	0xbda1e795	-0.07905499
170	0xbc974ba4	-0.018468685
171	0x3ce2c107	0.027679933
172	0xbbf567d9	-0.0074891862
173	0x3e34cd92	0.17656544
174	0x3d8b4bcd	0.06801567
175	0x3df70852	0.12062134
176	0x3d2a1c02	0.041530617
177	0x3da7785b	0.08177253
178	0x3e0db892	0.13839939
179	0xbe4717c2	-0.19442657
180	0x3d9f48a1	0.07777525
181	0x3d5e5fa8	0.054290444
182	0xbdd69706	-0.10478024
183	0x3e343d8c	0.17601603
184	0xbdde4de7	-0.108547024
185	0x3e3a4bf1	0.18193032
186	0x3ddde023	0.10833766
187	0x3d58b58e	0.05290752
188	0x3d6399b5	0.05556651
189	0xbe00728f	-0.125437
190	0xbdda0db0	-0.10647142
191	0x3be38332	0.00694313
192	0x3e30f95b	0.17282622
193	0x3d40ac9a	0.047039606
194	0xbe018dcc	-0.12651747
195	0xbd553a29	-0.05205742
196	0xbe71d71d	-0.23617215
197	0xbdc7bd3a	-0.09752889
198	0xbddb275c	-0.107008666
199	0x3e1419ca	0.14462963
200	0xbadadb26	-0.0016697391
201	0x3e0a9c28	0.13536131
202	0x3dac53ea	0.08414443
203	0x3e011803	0.12606816
204	0x3d395b2a	0.045252956
205	0xbcf851be	-0.030312415
206	0xbd525a5a	-0.051355697
207	0x3e7887f3	0.2427061
208	0xbd3ff0ec	-0.04686062
209	0x3dc6099b	0.09669801
210	0xbea4ca4b	-0.32185587
211	0x3e1df22c	0.15424412
212	0xbe0f339e	-0.13984534
213	0x3d22dab7	0.039759364
214	0x3d8952ad	0.06705222
215	0x3de71d9a	0.11284943
216	0xbd651531	-0.055928413
217	0xbe9c30a3	-0.30505857
218	0xbe163e6a	-0.14672247
219	0xbd8ccfc7	-0.06875568
220	0xbe523303	-0.20527272
221	0xbd55201c	-0.052032575
222	0x3b9ec133	0.0048448085
223	0xbe8456f8	-0.25847602
224	0x3d6c1d00	0.057644844
225	0x3d8b7258	0.06808919
226	0xbcdde583	-0.027086979
227	0x3d902ec2	0.07040168
228	0xbd873664	-0.06602171
229	0xbda6678a	-0.08125217
230	0xbe7483cf	-0.23878406
231	0xbc6ac108	-0.014328249
232	0x3d74fba7	0.059810307
233	0x3dfdfd4c	0.12401828
234	0xbe40b461	-0.18818809
235	0x3c9b9bf8	0.01899527
236	0x3c66594a	0.014059374
237	0xbdf8c927	-0.12147742
238	0x3c93320e	0.017968204
239	0x3e2c3be4	0.16819721
240	0xbebbeba7	-0.36703226
241	0xbe001843	-0.12509255
242	0x3e6433a1	0.2228532
243	0xbd5da465	-0.054111857
244	0x3d93fc10	0.072258115
245	0xbc59774b	-0.013273071
246	0x3dfc7b39	0.1232819
247	0xbe04a6d1	-0.1295426
248	0x3e84eb44	0.25960743
249	0xbd9ebed0	-0.07751238
250	0xbdcdc2fb	-0.10046955
251	0x3e04c42c	0.12965459
252	0x3d304ea1	0.043043736
253	0xbe696bc6	-0.22795019
254	0x3d5b2349	0.053500447
255	0xbd19238a	-0.03738741

fc2.bias f4 [128]
0	0x3dfdcc65	0.12392501
1	0x3e2a14a4	0.16609436
2	0x3d3894b4	0.04506369
3	0x3dbf4c92	0.093407765
4	0x3bc532d3	0.0060180216
5	0xbc613453	-0.013745385
6	0xbc2efd0e	-0.01068045
7	0x3e18a386	0.14906129
8	0xbcb39b4f	-0.021924643
9	0x3d53589c	0.051598176
10	0x3e223aff	0.15842818
11	0x3cf8cce3	0.030371135
12	0x3d7e1422	0.06203092
13	0x3d5a6565	0.053319354
14	0x3d51fe31	0.051267806
15	0xbd4fab9c	-0.05070077
16	0xbd8ef3bc	-0.069800824
17	0xbc4d798c	-0.012541186
18	0x3d95ea83	0.0732012
19	0x3dd1b18d	0.10238943
20	0x3e0705e2	0.13185838
21	0xbc2ea6dc	-0.0106599
22	0xbd45b819	-0.048271272
23	0x3d432223	0.047639977
24	0x3d5b19c3	0.053491365
25	0x3d54fce3	0.051998984
26	0x3e4a02f3	0.19727688
27	0x3d024513	0.031804156
28	0xbd7f8b94	-0.06238897
29	0x3ccc171b	0.024913361
30	0x3de5b486	0.11216073
31	0xbd724bea	-0.05915443
32	0xbdb3e70e	-0.087843046
33	0x3c559e05	0.013038163
34	0x3ca07ca9	0.019590693
35	0x3e11a1e2	0.1422191
36	0x3bcb541e	0.006205096
37	0x3d076162	0.033051856
38	0x3e29b039	0.1657113
39	0x3b19f46d	0.0023491636
40	0x3e3e37bd	0.1857595
41	0x3d9ce298	0.07660407
42	0x3e09d6c3	0.13460831
43	0x3d42c3d8	0.047550052
44	0x3db27ef1	0.087156184
45	0xbba40624	-0.005005615
46	0x3e319b7f	0.17344473
47	0xbc5b047e	-0.01336777
48	0x3d89239d	0.06696246
49	0x3db63622	0.08897044
50	0xbd8f1471	-0.06986321
51	0x3d563e7e	0.05230569
52	0x3e08d50b	0.1336252
53	0x3dcdc3c8	0.10047108
54	0x3d74c9e9	0.05976287
55	0x3d6dc90c	0.05805306
56	0x3e1a4941	0.15067007
57	0x3e0bd67e	0.13656041
58	0xbc703868	-0.014661886
59	0xbd62a6a3	-0.0553347
60	0x3d8c66e3	0.068555616
61	0x3e12f7b5	0.14352305
62	0x3d8104ad	0.0629972
63	0x3e417430	0.18891978
64	0x3d14d986	0.03634026
65	0xbd625f16	-0.055266462
66	0x3e2a2b9d	0.166182
67	0x3e1e475f	0.15456913
68	0x3d051e5f	0.032499667
69	0xbcc1c025	-0.023651192
70	0x3e3481c0	0.1762762
71	0x3d23537b	0.039874535
72	0x3db3df5a	0.08782835
73	0x3e00a7e2	0.12564042
74	0x3e2a7296	0.16645274
75	0x3d16f7b5	0.036857326
76	0x3e0701c6	0.1318427
77	0xbd0eb6e7	-0.034842398
78	0xbd8fd2fa	-0.070226625
79	0xbc75328e	-0.014965666
80	0xbda4eb0c	-0.08052644
81	0x3e1fcf26	0.15606365
82	0x3df0ca88	0.1175738
83	0x3cded0f1	0.02719924
84	0xbd951d95	-0.07281033
85	0x3db24227	0.08704024
86	0x3d469bd0	0.048488438
87	0x3d9152f7	0.070959024
88	0x3e053710	0.13009286
89	0x3e510844	0.2041331
90	0x3d672fa0	0.056441903
91	0x3cce5285	0.025185833
92	0x3cbae780	0.022815466
93	0x3cf25c51	0.029585036
94	0x3e012037	0.12609945
95	0xbd41c7c8	-0.047309667
96	0xbd06dcc9	-0.0329254
97	0x3c77ff1a	0.015136505
98	0x3ceb6a9f	0.028737364
99	0x3d602039	0.05471823
100	0x3d263800	0.04058075
101	0x3cb3271b	0.021869233
102	0x3cbeed8e	0.023306634
103	0x3e120d27	0.1426283
104	0x3e2faf3f	0.17156695
105	0x3c92218b	0.01783826
106	0x3ccb142f	0.024789898
107	0x3de8e154	0.11371103
108	0x3e391c41	0.18077184
109	0x3d12603f	0.03573632
110	0x3d41c52a	0.04730717
111	0x3dd41373	0.10355272
112	0x3c50dece	0.012748433
113	0x3cc961dc	0.024582796
114	0xbda2618e	-0.07928763
115	0x3c86738e	0.016412523
116	0x3daefda1	0.085444696
117	0x3da0ad8f	0.07845604
118	0x3d253779	0.040336106
119	0x3d82c76d	0.06385694
120	0x3d211c79	0.039333794
121	0x3d375550	0.044759095
122	0x3d9f1a47	0.07768684
123	0x3de69c4e	0.112602815
124	0x3e269990	0.16269517
125	0xbd462297	-0.04837283
126	0xbd9ded44	-0.077112705
127	0x3cdd8283	0.027039772

fc3.weight f4 [2, 128]
0	0x3e78dc2d	0.2430274
1	0x3e72d29b	0.23713152
2	0x3e366f12	0.17815807
3	0x3daf77ea	0.08567794
4	0xbd9b3879	-0.07579131
5	0xbeb60060	-0.3554716
6	0x3bda3cc1	0.0066600745
7	0x3e539cce	0.20665285
8	0xbd53fb2a	-0.0517532
9	0x3e689375	0.227125
10	0x3e9bebbd	0.30453292
11	0x3e4dfc42	0.2011576
12	0xbe135d22	-0.14390996
13	0x3e6eb369	0.23310627
14	0xbc8146dd	-0.01578086
15	0xbea40cc6	-0.32040995
16	0xbebec1bc	-0.37257183
17	0xbda18f20	-0.07888627
18	0x3e28b5ea	0.16475645
19	0x3d4b6e3b	0.04966567
20	0x3e95a672	0.2922855
21	0xbd763b73	-0.06011529
22	0xbd97a442	-0.074043766
23	0x3cb3e942	0.021961812
24	0xbe421081	-0.18951608
25	0x3e6f621e	0.23377272
26	0x3dbd6421	0.09247614
27	0x3becd628	0.007227678
28	0x3c9ddc8c	0.019270204
29	0xbd87e405	-0.06635288
30	0x3e4e9eac	0.20177716
31	0xbda235ee	-0.079204425
32	0x3d57d247	0.05269077
33	0xbe1fee19	-0.15618171
34	0x3e1c28a4	0.15249878
35	0x3e115930	0.14194179
36	0xbe7c3738	-0.2463044
37	0xbebbef8a	-0.3670619
38	0x3e29ee36	0.16594777
39	0xbe5f55c5	-0.21810062
40	0x3df0ce97	0.11758154
41	0x3e80eaaa	0.25179034
42	0x3e80edb9	0.25181368
43	0x3e7421a5	0.2384096
44	0xbd9a737d	-0.07541559
45	0xbe8e9f6a	-0.27855998
46	0x3e4aebf3	0.1981657
47	0xbcce49de	-0.025181707
48	0xbb86f6c0	-0.0041187704
49	0xbeb03811	-0.34417775
50	0xbda2c847	-0.07948356
51	0x3dcf61b0	0.10126054
52	0x3e858eae	0.26085418
53	0x3e6c2ccd	0.23063965
54	0x3df6ebc0	0.120566845
55	0x3e3fadf5	0.18718703
56	0x3e1cd06f	0.15313886
57	0xbe1da704	-0.15395743
58	0x3db1824f	0.086674325
59	0xbdd88194	-0.1057159
60	0xbeb62de3	-0.35581884
61	0x3e2058f0	0.15658927
62	0x3da5b6a9	0.0809148
63	0x3e11f9c6	0.14255437
64	0xbe50dcac	-0.2039668
65	0x3c93e9cf	0.018055825
66	0x3e6b64fb	0.2298774
67	0x3e27e748	0.1639682
68	0xbe5d6a17	-0.21622501
69	0xbc2a8796	-0.010408303
70	0x3e279ac0	0.16367626
71	0x3ddf77b5	0.10911504
72	0x3e4a85a5	0.19777544
73	0xbeab4306	-0.33449572
74	0x3e7e7adf	0.24851559
75	0xbeaca48f	-0.33719298
76	0x3e54f8ab	0.20797984
77	0xbce89c56	-0.02839486
78	0xbd5c4167	-0.05377331
79	0xbea300e2	-0.3183661
80	0xbd6acedf	-0.057326194
81	0x3e445ebc	0.19176763
82	0x3deb54a3	0.114907525
83	0x3dbc99cb	0.09209021
84	0x3d1a67d6	0.037696682
85	0x3e319685	0.17342575
86	0x3e4a40f7	0.19751345
87	0x3e9526de	0.29131216
88	0x3e049f93	0.12951498
89	0x3df23f89	0.118285246
90	0xbe946be7	-0.28988573
91	0xbd1e92ca	-0.038714208
92	0x3da51a3d	0.08061645
93	0xbbcc4eaa	-0.0062349634
94	0x3d01ed1b	0.031720262
95	0xbf099c55	-0.5375417
96	0xbd99aaa2	-0.07503249
97	0xbe9d942b	-0.30777106
98	0x3e2ce620	0.1688466
99	0x3e806670	0.25078154
100	0xbed8146f	-0.4220309
101	0x3e5be230	0.21473002
102	0xbd13f08b	-0.03611807
103	0x3e4409df	0.1914439
104	0x3e64676f	0.22305082
105	0x3cdf0a35	0.027226547
106	0xbd3e574a	-0.046469964
107	0x3e7304b2	0.2373226
108	0x3e2fee78	0.17180812
109	0x3e7b90a0	0.24566889
110	0x3ccb7ca0	0.0248397
111	0x3e9615c7	0.2931349
112	0xbe974d84	-0.29551327
113	0x3e0aeb62	0.13566354
114	0xbb69b8c0	-0.0035663098
115	0xbe581c90	-0.21104646
116	0xbea178b3	-0.315374
117	0x3e520ae7	0.20511971
118	0x3bbdcd66	0.0057923077
119	0x3e811df2	0.2521816
120	0x3e79e378	0.24403179
121	0x3e55cf3f	0.2087984
122	0x3e25fc50	0.16209531
123	0x3e53056d	0.20607539
124	0x3e110f64	0.14166027
125	0xbcd5728a	-0.026055593
126	0xbd6bedf0	-0.05759996
127	0x3e3d1392	0.18464497
128	0x3e55c241	0.20874883
129	0x3e350955	0.17679341
130	0x3e3dbe23	0.18529563
131	0x3e7018ce	0.23446962
132	0xbd87c426	-0.06629209
133	0xbeca5a5b	-0.3952206
134	0xbd2b93ca	-0.04188899
135	0x3e311dd7	0.17296539
136	0xbc2a97df	-0.010412185
137	0x3dfc46f5	0.123182215
138	0x3df962a5	0.12177018
139	0x3e8e7eec	0.2783121
140	0x3e1ba28f	0.1519873
141	0x3e6d9e53	0.23204927
142	0xbecc17b2	-0.39861828
143	0xbecf9ffd	-0.4055175
144	0xbe3c4e0b	-0.18389146
145	0xbcf3301c	-0.029686026
146	0x3e7301c2	0.2373114
147	0xbe08a48c	-0.1334402
148	0x3e186b10	0.14884591
149	0x3d7f711d	0.062363733
150	0xbd292f28	-0.041304737
151	0xbe868f6b	-0.26281294
152	0xbe44b252	-0.19208649
153	0x3dca8f85	0.098906554
154	0x3e500a06	0.20316324
155	0xbed759c7	-0.42060682
156	0xbda4b352	-0.08042015
157	0x3db0d9a5	0.086352624
158	0x3d2f2599	0.042760465
159	0xbb8c6450	-0.004284419
160	0xbf196bf8	-0.5993037
161	0xbc4b5d6e	-0.012412412
162	0x3e7df364	0.24799877
163	0x3e87a95b	0.26496395
164	0xbeb51780	-0.35369492
165	0xbe2d910a	-0.1694986
166	0x3e36712e	0.17816612
167	0xbeed5df0	-0.4636073
168	0x3e5f4ac7	0.21805869
169	0x3e5a7135	0.21332248
170	0x3e0e19a3	0.13876967
171	0x3e67b698	0.22628248
172	0x3d0b7646	0.03404834
173	0xbedeaf5f	-0.43493173
174	0x3e3624c0	0.17787457
175	0xbd473252	-0.048631974
176	0xbd75c5a4	-0.060002938
177	0xbcd5ad2a	-0.026083548
178	0xbb1ce980	-0.0023942888
179	0x3e80e435	0.25174108
180	0x3e1c765f	0.1527953
181	0x3e06e796	0.1317428
182	0x3e840bdd	0.257903
183	0x3e66f4ab	0.22554271
184	0x3e6c892a	0.23099199
185	0xbead0d0e	-0.33799022
186	0xbd6c366c	-0.05766909
187	0xbe914939	-0.28376177
188	0xbd8478b6	-0.06468336
189	0x3e825f83	0.25463495
190	0x3e85e3c2	0.26150328
191	0x3e3444a3	0.17604308
192	0xbec007e1	-0.3750601
193	0xbd055b64	-0.03255786
194	0x3e0d77e2	0.13815263
195	0x3e14cd56	0.14531454
196	0x3ce55097	0.02799253
197	0x3da21700	0.07914543
198	0x3e1984e1	0.14992096
199	0x3e5d7fa3	0.21630721
200	0x3e5c6cf3	0.21525936
201	0xbe576480	-0.21034431
202	0x3e3e5e80	0.18590736
203	0xbe5b7d25	-0.21434458
204	0x3e6895f0	0.22713447
205	0xbd94d3be	-0.07266949
206	0xbd88fe5d	-0.06689141
207	0xbea51e0b	-0.32249483
208	0xbd0d18a3	-0.034447324
209	0x3e287d37	0.16454016
210	0x3e8c0f8a	0.27355605
211	0x3e8b7c85	0.27243438
212	0xbd6de6f7	-0.058081593
213	0x3e83369a	0.25627595
214	0x3e8abcc1	0.27097133
215	0x3e00f2c7	0.12592612
216	0x3e981a5e	0.29707617
217	0xbee65596	-0.44987172
218	0xbd911780	-0.070845604
219	0x3cd62aab	0.026143393
220	0x3d9d7e37	0.07690089
221	0x3e5e6da5	0.21721514
222	0xbeb45d63	-0.35227498
223	0xbe953683	-0.29143152
224	0x3d1a26a0	0.037634492
225	0xbe2bc3aa	-0.16773859
226	0x3e5eabe7	0.21745263
227	0x3e62759c	0.22115177
228	0xbedb2855	-0.42804208
229	0x3de53559	0.11191816
230	0xbd9210a3	-0.071320795
231	0x3e6a2aa6	0.22867832
232	0x3e48168a	0.19539848
233	0xbe9bcf44	-0.3043157
234	0xbd60f472	-0.05492062
235	0x3e52c303	0.20582204
236	0x3e2e45bd	0.1701879
237	0x3e342a9e	0.17594382
238	0xbcf71614	-0.030161895
239	0x3de96b54	0.11397424
240	0xbdf0ee66	-0.11764221
241	0x3e830eda	0.25597268
242	0xbb7d4c80	-0.0038650334
243	0x3cdecc66	0.027197074
244	0xbdaf873c	-0.08570716
245	0x3e06d104	0.1316567
246	0xbd8733cb	-0.066016756
247	0x3e9a25fb	0.30107102
248	0x3e887dd3	0.26658496
249	0x3e5ab523	0.2135816
250	0x3e87ccd4	0.2652346
251	0x3e024f0e	0.1272547
252	0x3e8223a5	0.2541782
253	0xbcbe650c	-0.023241542
254	0x3ad8d3bd	0.0016542595
255	0x3e336229	0.17517914

fc3.bias f4 [2]
0	0x3dd59564	0.104288846
1	0x3e0b63f2	0.13612345
