hoho/outputs/CartPole-v1/20220409-213922/models/dqn_checkpoint.pth (torch, 272215 bytes, 6 tensors)

fc1.weight f4 [256, 4]
000000 fe 09 ae bd aa 72 ac be 46 8c 76 be 30 e6 7c 3d
       -0.084979996 -0.33681232 -0.24076948 0.06174296
000010 70 8f 55 3e b6 3e b8 3d 36 e9 6b be 96 dc a9 be
       0.20855498 0.08996336 -0.23038182 -0.33176106
000020 5b 85 b2 3e b2 c0 ab bd cd eb 0f bf f3 11 9b 3e
       0.34867367 -0.08386363 -0.5621918 0.30287132
000030 c5 ee 8e 3e 37 42 d8 3d c5 a4 43 3e e2 14 87 bd
       0.27916542 0.105595045 0.19105823 -0.0659578
000040 9c a9 c8 3e 8c 47 b3 3d 03 f5 71 3e 89 71 10 3e
       0.39191902 0.08753881 0.23628621 0.1410581
000050 4b 01 9c 3e 41 cb a5 3e fb d8 d9 be 96 19 77 bd
       0.30469736 0.32381633 -0.42548355 -0.060327135
000060 11 c2 fd 3e 40 66 91 be af 3a 9a 3d f9 47 61 be
       0.49562123 -0.28398323 0.07530724 -0.22000112
000070 e8 d0 c0 3e 51 d3 d1 3c f0 9c 94 bd 2d 01 93 3e
       0.37659383 0.025613459 -0.07256496 0.28711835
000080 e8 1b f8 3e 1a 36 81 be 88 7d bb 3d 1d 2e 0a 3f
       0.4845879 -0.2523659 0.091548026 0.53976613
000090 d5 5a af 3e c1 c0 3b bd 99 a7 39 be 13 0b bb 3e
       0.34248987 -0.04583812 -0.1813034 0.36531886
0000a0 7c 6d 00 3f 19 05 d1 3e c6 ba 58 3e 4f c2 ac 3e
       0.5016706 0.40824202 0.21164998 0.33741996
0000b0 c2 b7 db 3e 98 45 f1 bd 2d 1b da be df b7 95 be
       0.42913634 -0.11780852 -0.42598858 -0.29241845
0000c0 51 1b bb be 68 78 bb 3e e3 61 f1 be 18 ab 8d 3e
       -0.36544278 0.366153 -0.47144994 0.27669597
0000d0 3c 54 00 bf af d5 18 3d cb de 00 3f 18 9f 86 3e
       -0.5012853 0.03731316 0.50339955 0.26293254
0000e0 22 1c d0 3e b2 c7 e7 be 20 1d 34 bd 50 fe a7 be
       0.40646464 -0.45269543 -0.04397309 -0.32811213
0000f0 96 34 c6 be e3 8c 08 be 45 36 82 3c aa 76 a8 be
       -0.38711995 -0.13334994 0.015895018 -0.32903033
000100 a5 db fb 3e 14 85 fe bd af cc 35 3d 13 05 13 3e
       0.49191013 -0.124277264 0.044384655 0.14357404
000110 a9 28 5a 3e 2a ab 9b 3e ff ec 29 bf 22 a6 0f bf
       0.21304573 0.30404025 -0.6637725 -0.56112874
000120 3a 34 04 3e 21 12 bd 3e 8d 2d 01 bf ec 3e cb 3d
       0.12910548 0.36927894 -0.5046013 0.09924111
000130 0f 5b a5 be d5 e8 1e 3e 88 32 13 bf e3 80 ca 3d
       -0.32296035 0.15518506 -0.5749898 0.098878644
000140 40 42 d1 3e cc 7e 9a be 1f b1 52 be a9 f6 ec 3e
       0.40870857 -0.30174863 -0.20575379 0.46281937
000150 9d e5 d1 be 54 01 00 3f 30 53 b3 3e 30 a4 af be
       -0.40995494 0.50002027 0.35024405 -0.34304953
000160 67 80 d5 be cd c1 ee bd 55 4c f1 3e df 85 b8 be
       -0.41699526 -0.11658058 0.4712855 -0.36039636
000170 31 45 d0 3e 16 1d 12 3e 30 91 54 be b7 2b dd 3e
       0.4067779 0.14268908 -0.2075851 0.43197414
000180 15 b8 e9 be 32 fe 7c 3e 17 ef a3 3e 1d 8d c1 3e
       -0.45648256 0.24706343 0.3201835 0.37802973
000190 df b8 c8 3e 02 37 7e 3e 94 71 7c be 84 52 8f 3e
       0.39203545 0.24825671 -0.24652702 0.27992642
0001a0 55 99 1a 3f 7a f3 36 be ed 35 8c be e2 ba 5b 3e
       0.60390216 -0.17866316 -0.27384892 0.21458009
0001b0 16 63 03 be b8 c8 bc bd db 23 31 3e 75 19 81 3e
       -0.12830767 -0.092179716 0.17298834 0.25214735
0001c0 ed 35 b5 bd 6e bd 54 bd b8 7e ff be df df 0a bf
       -0.08848176 -0.051938467 -0.49901366 -0.5424785
0001d0 72 80 80 3e c0 43 85 be 06 f9 f7 be b7 35 c3 be
       0.25097996 -0.26028252 -0.48432177 -0.3812692
0001e0 71 44 03 3f dc 86 a5 3e e7 94 42 be 85 30 24 3e
       0.5127631 0.32329452 -0.19002114 0.16034134
0001f0 e6 bc f0 be 38 02 06 bf f0 96 7e be a3 43 c2 3e
       -0.47019118 -0.52347136 -0.24862266 0.37942228
000200 8b 9e 06 bf 39 99 bc be a2 d2 ba 3e 18 e3 ed 3e
       -0.5258567 -0.3683565 0.36488825 0.4646232
000210 44 64 ba be b7 7e a3 bd 91 7b e0 3e d9 a7 5d be
       -0.36404622 -0.07983153 0.43844274 -0.2164606
000220 fa 8e b0 be 69 08 55 be f4 c8 f2 3d 94 7d 9c 3d
       -0.34484082 -0.2080399 0.11854735 0.076411396
000230 5d 7c df 3e 68 3f a4 be 15 57 e8 3e bb ce bf be
       0.4364957 -0.32079625 0.45378938 -0.3746241
000240 7b ad b1 3e cb c7 7f 3e 46 45 0b 3e 9c fe 9a 3e
       0.34702668 0.24978559 0.13600644 0.30272377
000250 d7 2c d1 be f5 aa b7 be e2 e0 d7 3e ab 89 d3 3e
       -0.40854523 -0.35872617 0.4216376 0.4131597
000260 bd ea 86 be c6 7f cd 3e 55 4e ad be 94 ed ba 3e
       -0.26350966 0.40136546 -0.33848825 0.36509383
000270 27 8b 88 bd 37 5f b0 bc a7 76 ad 3e 27 58 12 3d
       -0.06667166 -0.021529777 0.33879587 0.0357286
000280 4a ce 3e be f6 43 0f 3e 88 63 bc 3d 9b fa 5f 3e
       -0.1863338 0.13990769 0.091986716 0.21872942
000290 32 ac cc 3e ed 41 e3 bd fa 1d 26 3d d0 6d d5 be
       0.39975125 -0.11096559 0.04055593 -0.41685343
0002a0 a1 48 0d be 39 28 e8 3e e9 29 18 3f cb 02 11 be
       -0.13797237 0.45343187 0.5943895 -0.14161222
0002b0 f5 16 81 3e 84 3e 51 bd 5f 6b e2 be 96 da 0a bf
       0.25212827 -0.05108501 -0.44222543 -0.54239786
0002c0 57 8d bf be 71 a3 52 3e 7f d9 12 3e e9 42 02 bf
       -0.3741252 0.2057016 0.1434078 -0.50883347
0002d0 df 48 ae 3e c7 52 d7 3e cd b8 b3 3e 68 86 1e be
       0.3403997 0.42055342 0.3510193 -0.1548096
0002e0 1e 5d 0c bf c1 15 f1 ba fd 2e 0d 3f 03 b5 e6 3e
       -0.54829586 -0.0018393324 0.55149823 0.45059976
0002f0 a1 f0 36 be 65 33 03 bf d7 c9 22 3e ea 43 14 3e
       -0.1786523 -0.51250297 0.15897308 0.14479032
000300 f5 45 96 3e 06 9a c1 3d 4d ea 13 bf b3 4e ab be
       0.29350248 0.09453206 -0.5777939 -0.3345848
000310 1d 34 ac 3e 79 ff f1 bd fb 0c 09 be 20 01 7e 3d
       0.3363351 -0.11816306 -0.13383858 0.06201279
000320 94 f2 0d be c0 44 9b 3e c8 e6 e4 bd 9c d0 99 3e
       -0.13862067 0.3032589 -0.111768305 0.3004197
000330 d0 7f 9c be a8 75 a5 3e ed 57 65 bd 3c 22 88 be
       -0.30566263 0.32316327 -0.055992056 -0.2658862
000340 78 45 18 bc cb 60 6a 3e 59 2e 41 3e f1 fb 95 3e
       -0.009293906 0.22888486 0.18865336 0.2929378
000350 e5 e2 80 be 46 3e 0f 3d b5 14 ac 3e 20 88 0d 3f
       -0.25173107 0.034971498 0.33609548 0.55285835
000360 ff ee a0 be 5e 33 81 be de c6 2a be 57 48 f0 bd
       -0.3143234 -0.25234503 -0.16677424 -0.11732548
000370 e6 5e 93 3e 1c be 9c be 4b 68 94 be b8 3c 14 3e
       0.2878334 -0.30613792 -0.2898582 0.14476287
000380 20 42 cf 3e 43 a2 09 3f ce 99 c1 3e aa ff e2 3e
       0.40480137 0.53763217 0.37812656 0.4433568
000390 03 e1 3a be c1 18 e3 be dc 33 c4 bd ef 5a 2d bd
       -0.18249898 -0.44354823 -0.09580204 -0.04232305
0003a0 84 3b 57 be 21 35 ae 3e ac 6b 09 3f 23 16 d9 3d
       -0.21018797 0.3402491 0.5367992 0.10599925
0003b0 0e 7c a3 3d 73 3a 57 3d 44 cc 40 be a8 ef 29 be
       0.07982646 0.052545976 -0.18827921 -0.16595328
0003c0 aa 85 df 3e 80 18 bb be 99 20 07 bf c4 7e c2 3e
       0.43656665 -0.3654213 -0.52784115 0.3798734
0003d0 44 6c 0d bd ea 99 b8 bd 9f b7 82 be d3 74 7e 3e
       -0.03452708 -0.09013732 -0.25530717 0.24849252
0003e0 f5 50 85 be 30 1d e0 be 74 06 46 be 37 2a 76 3e
       -0.26038328 -0.43772268 -0.19338399 0.24039541
0003f0 48 bc b1 3e 9f dd 1c 3b 86 13 b5 be 0e f4 0e be
       0.3471396 0.0023935807 -0.35366458 -0.13960287

fc1.bias f4 [256]
000000 37 cd 66 bc a2 89 0a 3f be 40 04 3f 22 3d 07 3e
       -0.014087013 0.5411626 0.5166129 0.13206914
000010 64 03 dd be 91 9e 3a 3e f4 bf 85 3e 9c 99 8e 3e
       -0.4316665 0.18224551 0.2612301 0.2785157
000020 9d 93 b3 be 41 cc e6 3e ca a6 98 3e f4 83 f4 3e
       -0.35073557 0.45077708 0.2981475 0.47756922
000030 66 28 23 3e f4 c4 2b be 40 58 f7 be fc 59 01 be
       0.1593338 -0.1677435 -0.48309517 -0.12631983
000040 66 2d 91 3e 3b 74 db bd f6 e8 9f be 2d b2 1b 3e
       0.2835495 -0.107155286 -0.31232423 0.15204687
000050 9c 04 fa 3e 56 4c b0 be 36 cc 59 3e 08 16 02 3c
       0.48831642 -0.3443324 0.21269307 0.007939823
000060 54 62 33 3e 28 86 c6 3e c8 d5 b4 3d fe 31 83 be
       0.17517978 0.38774228 0.08829838 -0.2562408
000070 82 28 ab be 7d 02 dc 3e 88 30 2a be f2 cb 8b bd
       -0.33429343 0.42970648 -0.16620076 -0.06826009
000080 7b f3 68 bd d8 86 cd 3e a8 14 a4 be 21 c9 86 be
       -0.056872826 0.4014194 -0.3204701 -0.26325324
000090 fd 3e fe be d0 d2 fa be 89 04 a6 be 84 b0 45 3e
       -0.4965743 -0.48988962 -0.32425335 0.19305617
0000a0 41 4e db 3e 67 46 0e 3e d8 13 96 3e a5 a2 54 be
       0.4283314 0.13894044 0.29312015 -0.20765169
0000b0 13 48 e0 be f1 5d 84 be d3 7f 75 be 36 62 6e 3e
       -0.43804988 -0.25852922 -0.23974542 0.23279652
0000c0 ea 5d ae bd 93 6a 92 3e 82 b5 fe be dc 12 b3 be
       -0.085140064 0.28596935 -0.49747854 -0.34975326
0000d0 ba 97 c4 3e f0 78 e1 bb 5a 56 19 3e 19 f3 6f be
       0.38397008 -0.006880872 0.14974347 -0.23432578
0000e0 ba 09 92 be ee 89 26 be d0 65 e8 3e f0 a5 34 be
       -0.28523046 -0.16263554 0.45390177 -0.17641425
0000f0 89 71 b5 3e ad 35 b3 3e 68 dc 8f 3e bd 15 a7 3e
       0.35438183 0.3500189 0.28097844 0.32633772
000100 09 6a 94 3e 38 c6 9b 3d ab 7a 39 3d 2a 4a 80 be
       0.28987148 0.076061666 0.045283 -0.25056583
000110 97 12 db be 94 c2 bc be 43 24 51 be e6 7c 1f 3e
       -0.4278762 -0.368672 -0.20423989 0.15574989
000120 e5 32 97 bc c8 7f 9e 3e 50 48 2e be e8 f5 f2 3e
       -0.018456886 0.30956864 -0.17019773 0.47453237
000130 a0 b3 0d 3f e3 74 c8 3d 94 98 0d be 24 8f b9 3e
       0.5535221 0.09787919 -0.13827735 0.3624202
000140 0b 18 f4 be a3 71 9d 3e fa 12 13 3f a5 81 4f be
       -0.47674593 0.3075076 0.5745083 -0.20264299
000150 4d b7 12 3f 8f d5 81 3e 88 4f a9 3d 5f ad c7 be
       0.57310945 0.25358245 0.082671225 -0.3899946
000160 6f f0 0f be 54 95 d6 be 4f 3f b3 3e fb 8c d6 be
       -0.14056562 -0.41910803 0.35009238 -0.41904435
000170 6c 8c ec bc 66 d1 93 3e f9 87 0a 3f 5b d6 ca 3e
       -0.028875552 0.28870696 0.5411373 0.39616665
000180 6c 7f 93 be 8c 0a b6 3e 0d c7 09 3f 01 24 ff 3c
       -0.28808153 0.35554922 0.5381935 0.031145098
000190 af b7 ce 3c b0 e9 99 bb 58 c4 ce bd 89 83 fd 3e
       0.025234072 -0.004697047 -0.10096043 0.49514416
0001a0 7f da dd 3e ed 15 0f be 4a 62 e4 bd e6 42 01 3f
       0.43330762 -0.13973208 -0.1115156 0.50492704
0001b0 47 e3 9e 3d e5 21 18 3e d7 70 d5 3e 29 f6 b3 be
       0.077581935 0.1485668 0.41687652 -0.35148743
0001c0 40 59 53 3d c4 ad 94 3e a9 52 33 bd e3 15 af 3e
       0.051598787 0.29038823 -0.043780003 0.34196386
0001d0 8c 0f 35 be e0 25 0c be ad 97 b5 be ac cd 4b be
       -0.17681712 -0.13686323 -0.35467282 -0.19902676
0001e0 5b 5d ae be 59 67 f5 be f4 00 ff be ae e0 a6 be
       -0.340556 -0.4793041 -0.49805415 -0.32593292
0001f0 fb 6c b8 3e d1 0d a9 3e 56 7a 89 3e 75 15 b5 3e
       0.36020645 0.33018354 0.26851147 0.35367933
000200 72 d7 9c bd cc b8 47 bd a7 2f 8b be d3 a5 0a 3e
       -0.076582804 -0.04876022 -0.27184793 0.1353982
000210 7f d1 ec 3e 84 4d 95 3e ed 61 73 be d1 08 b3 3e
       0.46253583 0.29160702 -0.23767824 0.34967664
000220 e5 13 f5 3e 0d f2 22 3e 40 64 80 be 16 7c b2 3e
       0.4786674 0.15912648 -0.25076485 0.34860295
000230 36 2b e8 be b3 9a 0b 3f 9e 4c f5 3c 86 cf 0a 3f
       -0.45345467 0.5453293 0.02994376 0.54222906
000240 5e 97 c2 3e 0a 0d 63 3e 58 5e c1 3e b8 9a 4a bb
       0.3800611 0.22172943 0.3776729 -0.0030914973
000250 8d 41 ee 3e 88 15 97 3e d6 2e 1e be 65 27 5e bd
       0.46534386 0.29508615 -0.15447554 -0.05423679
000260 ee 5b 6c 3e fb f6 ea 3e 08 e1 72 3e a3 3a a8 3e
       0.23081943 0.45891556 0.23718655 0.32857236
000270 6a bc f0 be f2 a5 2c 3d 15 16 e8 bd f2 4a 31 be
       -0.4701875 0.042150445 -0.11332337 -0.17313746
000280 b7 20 92 be b5 06 13 3e 8f 55 cd 3e f8 26 a2 be
       -0.28540584 0.14358027 0.4010434 -0.31670356
000290 ac 9a 28 be 87 ca 8b bc f0 65 fc 3e 42 42 f8 bd
       -0.16465253 -0.017064346 0.49296522 -0.12122013
0002a0 28 52 75 3e da 9d b6 3e 1f 9e 96 3e d7 c7 89 3d
       0.23957121 0.35667306 0.29417512 0.067275696
0002b0 15 74 12 be 8c 6e 77 be bd 06 2d 3e 14 fe 72 be
       -0.14302094 -0.24163264 0.16897102 -0.23729736
0002c0 ce 7e 7c be b0 68 bd 3e 6a 84 9d 3e eb bf fc 3e
       -0.24657747 0.36993933 0.30765086 0.49365172
0002d0 38 12 2a be 0b 63 d9 3d ff d1 f8 3e 2a c7 74 be
       -0.16608512 0.10614594 0.48597714 -0.239041
0002e0 7a 83 91 be ee 5e 9e be 3a f4 03 3f ab 89 f4 be
       -0.2842062 -0.309318 0.51544535 -0.47761282
0002f0 7e ed 8a 3e ed 8f 59 3d 85 e0 b2 bc 47 d2 9a be
       0.27134317 0.053115774 -0.021835575 -0.30238554
000300 77 76 69 3e 60 95 9c bc 43 3d 9c 3e d3 fe 15 bc
       0.22799097 -0.019114196 0.3051549 -0.009154993
000310 a6 6c 2d be 76 4d d3 bd d6 bd ed bc 44 a5 99 be
       -0.16935977 -0.10317509 -0.029021185 -0.300089
000320 7d eb b4 bd 7d 83 c2 3e 07 6e 50 be 96 61 eb 3e
       -0.08833978 0.37990943 -0.20354472 0.4597289
000330 da a1 d4 be a9 d9 d7 bd b7 9f 09 3f 1c 4d 10 3f
       -0.41529733 -0.10539562 0.5375933 0.5636766
000340 27 f2 b6 be 4e a3 ea be 76 82 a7 be 2a 7c ff 3e
       -0.35731623 -0.45827717 -0.3271672 0.49899417
000350 ed 3d 00 3e 8c ee 00 3d 48 59 ff 3e 41 7c cf be
       0.12523623 0.031477496 0.49872804 -0.40524486
000360 af 90 9b be 7f 0c e3 3e 82 a8 87 3e bb 0f b5 be
       -0.30383822 0.4434547 0.2649575 -0.35363564
000370 10 94 68 3d 93 ac 86 3e e8 a3 06 3f f6 de c8 bd
       0.05678183 0.2630354 0.5259385 -0.098081514
000380 cf ab c4 3e c5 e0 1b 3e b3 62 e4 3e 35 22 b0 be
       0.3841233 0.15222462 0.44606552 -0.34401098
000390 57 45 a5 be ac b7 af be a4 71 52 3e 81 11 08 3f
       -0.32279465 -0.34319818 0.20551163 0.5315171
0003a0 37 b4 b7 3d 47 b7 46 be 21 01 ea 3e f0 33 87 be
       0.0896992 -0.19405852 0.45703986 -0.26406813
0003b0 57 44 46 3e 64 bc f1 bd d9 a1 d8 3e 24 75 3a be
       0.19362007 -0.11803511 0.4231098 -0.18208748
0003c0 f4 7d 3b 3e 7a 3e 5d be a4 ca e8 3e 5c 12 c3 3e
       0.18309766 -0.21605864 0.45467103 0.38099945
0003d0 62 eb e1 be 6a 8c 00 3e a0 5c 30 3d 52 03 ed be
       -0.44124895 0.12553564 0.043057084 -0.46291596
0003e0 23 12 ed bd 94 29 ba bb 51 43 4d be 91 20 a5 3e
       -0.11575725 -0.005681226 -0.2004521 0.3225141
0003f0 42 da cf be 2d f5 aa 3e 63 c5 c8 be 9c e1 e1 3e
       -0.40596205 0.3339018 -0.39213094 0.4411744

fc2.weight f4 [256, 256]
000000 6d 4f d7 bc 6c cf 1d be d9 5d 61 bd e7 ae 97 3d
       -0.02628299 -0.15411156 -0.05502114 0.07406407
000010 f1 c3 1a 3d 9a 59 8c bc fe 41 d3 bd 8c 21 c6 bc
       0.03778452 -0.01713257 -0.103153214 -0.024185918
000020 8e 2a 9a 3d f1 39 d8 bc e1 06 13 3d a2 19 d9 bd
       0.07527648 -0.026394816 0.035895232 -0.10600592
000030 db aa a5 3d 36 d3 02 3e 26 91 04 3d 31 6a f3 bc
       0.08089229 0.12775883 0.032364987 -0.029713722
000040 f6 b7 77 3d 76 c1 70 3c 6e 54 93 3d e1 d4 f5 bd
       0.060478173 0.014694562 0.07193838 -0.12003494
000050 09 39 e2 bc 37 65 36 bd 80 dc da 3d 5b be 89 3d
       -0.027615087 -0.04453012 0.10686588 0.067257605
000060 43 15 ea 3d b3 0c 72 3d 37 c8 67 3d 98 5a b8 bd
       0.114298366 0.059094142 0.056587424 -0.090016544
000070 58 bf a3 3a 03 c8 97 be 97 80 94 3d f3 d6 c8 3c
       0.0012492938 -0.29644784 0.07251089 0.024516558
000080 81 92 8b 3d d0 44 40 3d 67 01 eb bd c1 45 72 3d
       0.06815053 0.046940625 -0.11474877 0.059148554
000090 7a 5c 90 bb 81 c4 50 3d fd 93 2a 3d d8 a4 a7 3d
       -0.0044055553 0.05096865 0.04164504 0.08185738
0000a0 5e 36 40 3d d2 51 c4 3a a4 37 87 3d cd 23 e7 3d
       0.04692685 0.0014977998 0.066024095 0.11286125
0000b0 bc 16 39 bd e5 d4 a0 3d 36 dd 33 3d d9 83 cb ba
       -0.045187697 0.078531064 0.043912135 -0.0015526965
0000c0 d0 8d 0f bc 22 70 1b bd a2 e9 16 3d fa 70 fe bc
       -0.008761838 -0.037948735 0.036843903 -0.03105973
0000d0 3c e1 73 3d 0d 15 db 3d 4d a9 98 bd b3 99 47 bd
       0.059540972 0.106973745 -0.074541666 -0.048730563
0000e0 9a 5b ad 3d a4 48 1e bd 35 92 c7 3d 27 12 23 3e
       0.08464737 -0.038643494 0.09744684 0.15924893
0000f0 f9 22 92 bc 17 29 a3 bc 7f 49 d0 3b 95 37 0d be
       -0.017838942 -0.019917054 0.0063564177 -0.13790734
000100 ba 2f e9 3c 1d da 68 bd 97 42 d5 3d 11 e6 b1 3b
       0.02846514 -0.056848634 0.10413092 0.0054290374
000110 12 bc 81 bd ae fa e7 3c 27 34 1a bd 53 22 9d 3d
       -0.063347 0.028317776 -0.037647393 0.076725625
000120 02 ae 78 3e 60 f5 c9 bc 50 6a 56 bb ab aa cf bd
       0.24285129 -0.024653137 -0.0032717176 -0.10139974
000130 83 32 d6 bc c0 37 19 bd 9d e9 6d 3e ab 00 76 bc
       -0.026147133 -0.037406683 0.23233648 -0.015014808
000140 f6 86 46 3d a1 77 2f bc 06 14 a8 bd 29 01 94 3d
       0.048468553 -0.010709674 -0.08206944 0.07226784
000150 c6 01 48 be ae 2f 4f 3d 3e 8b e1 bd ba 91 1c be
       -0.19531927 0.05058258 -0.110128865 -0.15289965
000160 7e 9d 86 3e 6e da 0f 3e 77 e5 67 3d df 3a 38 bd
       0.26292032 0.14048168 0.05661532 -0.04497802
000170 52 8f d4 3d 04 e0 90 bc e6 bf a1 3d 5c a5 3b bd
       0.10378899 -0.017684944 0.0789793 -0.045811996
000180 a5 51 a2 bb 6d ed 2c 3d f5 78 fb ba 81 2b 11 3b
       -0.0049535804 0.042218614 -0.0019185828 0.0022151174
000190 44 25 51 3b 77 2c 83 3d b4 39 23 bd 56 ce 26 3d
       0.0031913081 0.06404965 -0.039849952 0.04072412
0001a0 83 f5 ed bc 3a a6 66 3e fb b6 c7 3d e9 2b 1a 3d
       -0.029047733 0.22524348 0.09751698 0.037639532
0001b0 5d d0 64 3e 93 cf c2 bd 01 fb b8 3d 07 39 ac 3c
       0.2234511 -0.09512248 0.0903225 0.021023287
0001c0 b9 02 88 3d df 19 09 3e 04 fb ba 3d 74 ad 1d bc
       0.06641144 0.13388775 0.09129909 -0.009623874
0001d0 b8 44 da 3d 8d 6d 25 3d d4 33 6b bd 19 e2 b6 3c
       0.10657638 0.04038768 -0.057422474 0.022324609
0001e0 e4 56 37 3d f2 28 ab 3c e8 80 94 3a 17 17 84 bc
       0.0447606 0.020893548 0.0011329921 -0.016124291
0001f0 fe ad 49 bd 7a 35 9e 3c 80 0d 1f bc 45 a6 87 3c
       -0.049238198 0.019312609 -0.0097078085 0.016558776
000200 2b d6 9f 3e ec 62 3a 3e 01 b1 e7 3d 49 21 a8 bd
       0.31218085 0.18201798 0.11313058 -0.08209474
000210 db c7 47 3d b4 ce ba 3c 7b d1 35 bd ae 0b e2 3d
       0.04877458 0.022803642 -0.04438923 0.11037384
000220 21 54 04 3d 58 28 36 bd 7e b5 f0 bd c8 80 be bd
       0.032306794 -0.04447207 -0.11753367 -0.09301907
000230 36 f2 2f 3a 24 b7 e5 bd bb 57 87 3d 09 be 0a bd
       0.00067118125 -0.11216572 0.0660853 -0.033872638
000240 3a 41 62 bd 58 db 2a be e1 6f db 3c f1 f4 dc 3d
       -0.055237986 -0.16685236 0.026786746 0.10788906
000250 bd 07 76 bd 22 5b 8b 3d 80 1e 7a 3d 0d e6 2c bd
       -0.060065974 0.068044916 0.061064243 -0.04221158
000260 cd 76 06 3e c6 50 97 3d 2f b5 e4 bd b5 70 29 3d
       0.13131256 0.07388453 -0.111673705 0.04136725
000270 bb 7a c7 bd 4f 88 23 3e fa 4e a0 bd ba fe 54 bd
       -0.09740206 0.15969966 -0.078275636 -0.05200074
000280 8f 21 98 bc ec c3 f8 bd 7b d0 35 be 8f 0c 81 3d
       -0.01857069 -0.12146744 -0.1775531 0.063012235
000290 0c ef 90 3c 17 6d b5 3d 3d fb 9b be ef ad ed 3d
       0.017692111 0.08858698 -0.30465117 0.11605441
0002a0 ad e2 b4 3d f5 71 7a bd df e7 3f 3d 5b 97 ab 3d
       0.088322975 -0.061143834 0.04685199 0.08378478
0002b0 cf dc 3c 3e 95 2d 1a 3d 3c d0 2a bd b6 4c 93 3e
       0.18443607 0.037641127 -0.041702494 0.28769463
0002c0 3a 2b b6 3d 8e d0 a0 3c 24 10 45 be a9 55 12 be
       0.088949636 0.019630697 -0.19244438 -0.1429049
0002d0 46 a1 d9 3d de 92 3c bd 71 8b 19 bd a1 0b 85 3d
       0.106264636 -0.0460385 -0.037486497 0.06496359
0002e0 87 d4 df 3b 8b 47 23 3e 89 ae 6e bd 37 19 e7 3d
       0.006830755 0.1594526 -0.05827192 0.11284106
0002f0 eb a7 6d bd 86 cc a0 bd bf 6b f6 bd 83 42 3c 3d
       -0.058021467 -0.0785151 -0.1203227 0.045961868
000300 64 0e e2 3b 40 eb 1a bd a9 29 1f bc 2e e9 2f 3d
       0.006898688 -0.037822008 -0.009714522 0.042946987
000310 a2 6d d8 3d ac c0 cd 3d 0d 51 a5 3d 5d c4 38 3d
       0.10567786 0.10046515 0.080721 0.04510914
000320 8a aa c2 bc 3c b0 c8 bd 1f a8 17 3e 00 73 88 be
       -0.02376296 -0.09799239 0.14810227 -0.26650238
000330 a3 7c c5 3b a7 83 51 3e c4 0d fb 3c 65 92 3d 3d
       0.0060268207 0.20460378 0.030646212 0.04628219
000340 47 ed b8 3c 29 6a e2 bb ec 71 6d 3e 9a ab ba bd
       0.02257408 -0.006909628 0.23187989 -0.09114762
000350 6c 74 6d 3c 8a 5f 5d 3c ab 7b e6 ba 90 57 01 3e
       0.014493089 0.013511548 -0.0017584463 0.12631059
000360 f2 1b c2 ba f6 89 93 bd 94 69 4e bc 4e 33 9c 3d
       -0.0014809354 -0.07204048 -0.012598414 0.07626973
000370 50 8e 72 bd 15 2b 24 bd 36 44 ac bc 3a 8f 63 3d
       -0.05921775 -0.04008015 -0.02102862 0.055556513
000380 33 a6 2b be d9 30 ff bb 8c 5b ca bd 6d d2 09 3b
       -0.16762619 -0.0077878055 -0.098807424 0.0021029965
000390 af 7b bb bd 0e 52 b3 bd a4 be f6 bd a9 19 81 3d
       -0.0915445 -0.08755885 -0.120480806 0.063037224
0003a0 07 2e 01 3e 02 a4 06 bd 55 ef 99 bd d6 59 41 3c
       0.12615214 -0.032871254 -0.07516352 0.011801204
0003b0 b4 5f 09 be 1c 83 da 3d fc 41 3b 3d f8 da 15 3c
       -0.13415414 0.106695384 0.045717224 0.0091464445
0003c0 ac f7 5a 3e df f9 9d 3c 2d fc 37 be d3 ca df bd
       0.21383542 0.019284187 -0.17967291 -0.109273575
0003d0 42 05 9a 3c a1 81 7c 3d ff 05 8c 3d 8c 54 1d 3d
       0.018801335 0.06164706 0.06837081 0.03841071
0003e0 8f 75 55 3c 2a 57 a6 3d 51 2e 15 3d 33 90 0c 3d
       0.013028516 0.08122094 0.036421124 0.034317207
0003f0 47 0d e5 3d 27 76 c2 bd f6 b7 0b bd 28 67 44 3d
       0.11184173 -0.09495192 -0.034110986 0.04794994

fc2.bias f4 [256]
000000 a3 04 45 bd 04 a5 a9 3c 17 30 86 ba aa f0 4a 3c
       -0.048100125 0.020708568 -0.001023772 0.01238648
000010 d3 7c ad 3c 94 77 35 bd 46 8a 11 3d ff 9a f9 3c
       0.021177685 -0.04430349 0.03553226 0.030469416
000020 61 4d 33 3d d6 78 09 3d 45 c8 b7 3d f1 22 c5 3d
       0.043774966 0.033562504 0.08973745 0.09625805
000030 40 63 24 bb c0 8f 3a 3d 9d 83 1e 3d a1 61 4a 3d
       -0.0025083572 0.045547247 0.038699735 0.049409512
000040 94 8c b0 3d a1 fa 6a 3d 86 8b ef bc 7f 40 d5 3c
       0.08620563 0.057367925 -0.029241335 0.02603173
000050 55 e1 51 3d 4f 5c 9a 3d a1 a5 d2 3c ce 64 a3 3d
       0.051240284 0.07537138 0.025713744 0.07978211
000060 c6 09 86 3b 76 d8 4c 3d 67 bf 4b bd d2 13 b8 3c
       0.0040905206 0.05001112 -0.049743082 0.022470389
000070 f1 b9 ba 3c 26 7a 85 3b c0 31 d0 bb c6 44 72 3d
       0.022793742 0.004073399 -0.006353587 0.05914762
000080 d2 a9 a5 3d 57 85 b4 3b 17 97 28 bc ae 47 02 bd
       0.08089031 0.0055090594 -0.010289929 -0.03180664
000090 f9 32 4d 3d 3c a3 2d 3d a6 52 a7 bc 80 ac 9e 3d
       0.05009744 0.042392 -0.020425152 0.077477455
0000a0 a3 c6 b3 3d ca 5c 02 bd ea f8 82 3d 62 15 58 3c
       0.08778121 -0.03182677 0.06395133 0.013188692
0000b0 db eb df 3d c4 fe a7 3d 56 ce 0e 3d b5 8e 8a 3b
       0.10933658 0.082028896 0.034864746 0.004228438
0000c0 60 c1 35 bd 5e aa 71 3d de 8b 2e 3d 5c 67 52 3d
       -0.04437387 0.059000365 0.042613856 0.051368102
0000d0 56 09 a4 3d 6e e5 67 bd 97 5d bd 3d aa bd e0 3d
       0.08009593 -0.056615286 0.092463665 0.109736755
0000e0 b7 6a 80 3d 2d 49 01 3d 0d 56 7b 3d c8 57 ef 3b
       0.06270354 0.031563926 0.06136136 0.0073041655
0000f0 73 21 b5 3c 4b 11 3b 3d 98 c7 7a 3c 05 af c5 bc
       0.022110676 0.04567079 0.015306376 -0.024131307
000100 d9 25 14 bb a0 01 ee 3c d6 3f 15 3d f8 1e 7d 3b
       -0.0022605567 0.02905351 0.03643783 0.0038623195
000110 42 39 64 bc 2e 1b 26 bd 2d 3a fe 3c 91 da 8e 3d
       -0.013929667 -0.040553264 0.0310336 0.06975282
000120 0b 43 9d bc 8c 76 c7 3c 82 d2 79 3c 90 c3 4c 3c
       -0.019197008 0.02434852 0.015247943 0.012497798
000130 36 00 52 bd ee 29 03 ba 4a 67 cc bc 7b 55 72 bd
       -0.051269732 -0.00050035014 -0.024951596 -0.05916355
000140 0a 9a 36 bd d5 2c 9f bc 9e fb 0c 3d 30 a5 ce bb
       -0.044580497 -0.019430557 0.03441965 -0.006306313
000150 37 33 d3 3d b9 af 3f bd e0 81 37 bd a0 6d 36 bc
       0.10312503 -0.04679844 -0.044801593 -0.011134535
000160 37 fe 10 bd 90 b3 80 3d 28 e2 e3 3c 89 21 8f 3d
       -0.03539869 0.06284249 0.0278178 0.06988818
000170 5d da 89 3c df e8 61 3d a7 5b 8b 3d 3f db 97 bd
       0.016827757 0.055153724 0.06804591 -0.07414865
000180 a9 65 c7 ba 43 b3 70 bd a2 49 2a 3d 76 06 27 3d
       -0.0015212792 -0.058764707 0.041574128 0.040777646
000190 26 df 0f bd d6 3f f6 37 00 59 99 3d d5 75 03 3d
       -0.03512492 2.9355211e-05 0.074876785 0.032094795
0001a0 58 3e 91 ba d3 e8 b2 3d c7 3a 58 3d 6b bf a0 bc
       -0.0011081202 0.08735814 0.05279043 -0.019622525
0001b0 9c 30 99 3d d5 e5 0d 3c cc 4b 14 3d e4 67 df bc
       0.07479975 0.008660753 0.036205098 -0.027271219
0001c0 84 e8 3a 3d ff 4e 32 bd 50 3d 2e bd 97 60 d2 3d
       0.0456319 -0.043532368 -0.04253894 0.10272329
0001d0 32 03 a9 3d fd 3d 55 bb 75 72 bf bb 16 7c 63 3c
       0.082525626 -0.0032538169 -0.0058425018 0.013884565
0001e0 74 ea c2 3c 58 8f 80 3d 0c 00 a0 3b 6a 45 19 3d
       0.023793437 0.06277341 0.004882818 0.037419714
0001f0 8a e4 04 3d 89 27 ab 3d d8 b2 03 3d 65 eb a6 bb
       0.032444514 0.0835715 0.03215298 -0.005093979
000200 3c 26 be 3d 05 63 80 bd ed fe 9c 3c 7f e0 d1 bc
       0.092846364 -0.062688865 0.019164527 -0.025619743
000210 96 8a 13 3d 13 38 9e bd a4 61 b1 bd b3 87 b5 bc
       0.036020838 -0.07725539 -0.086612016 -0.022159433
000220 38 81 2c bd d9 0f d1 3d 93 82 97 3d cc d7 28 3d
       -0.04211542 0.10208101 0.07397952 0.041221425
000230 84 32 c8 bc 2d 95 24 bc 15 38 e3 bc 72 a2 b2 3b
       -0.02443815 -0.010045332 -0.027736703 0.005451494
000240 a6 06 3d bd 29 09 36 3d ac cd 8f 3c 3a b8 20 bd
       -0.04614892 0.04444233 0.017554127 -0.039238192
000250 8d ff cd 3d 46 75 40 3a a1 a2 2f 3b 18 9b 89 3b
       0.10058508 0.0007341694 0.0026799815 0.004199397
000260 06 b2 af bc 59 23 22 3c dc f8 43 3d 5d 8d 83 3d
       -0.021447193 0.009896123 0.047844753 0.06423447
000270 b5 be be 3d ae 4d 32 bb 2a 27 23 3d b8 28 cd 3d
       0.09313718 -0.0027206945 0.03983227 0.10017532
000280 38 c4 3b bd 8c e1 3b bd 63 e3 67 3d 21 db 5e bd
       -0.045841426 -0.045869395 0.056613337 -0.054408196
000290 c6 d6 94 3a 3b b7 83 3c 00 f0 eb 3c 40 20 39 bd
       0.0011355511 0.016078582 0.028800964 -0.04519677
0002a0 80 0d 30 3d 45 78 28 bc ab eb 9d bc 13 19 e9 3c
       0.042981625 -0.010282581 -0.019277414 0.02845434
0002b0 4a dd b8 3a 41 e1 9f 3c ee 2e 8b bd 03 0a 2c bc
       0.0014104035 0.01951659 -0.067960605 -0.010500434
0002c0 8a 0e 0a bd 8e dd 56 3d 78 45 71 bc 98 0b 70 bc
       -0.03370527 0.052457385 -0.014726035 -0.014651202
0002d0 32 16 d7 bc c7 eb 86 3d 00 5d 48 bb ed f5 44 bc
       -0.0262557 0.0658794 -0.003057301 -0.012021524
0002e0 8c e8 3a bd e9 86 3e 3d bf 41 58 bc 12 cd 9c 3d
       -0.04563193 0.04651538 -0.013199269 0.076563016
0002f0 c6 91 a6 3d d9 27 df 3c a8 19 39 bd cf 4b ac 3c
       0.08133273 0.02724068 -0.045190483 0.021032242
000300 01 cb aa 3d 2c e9 8f 3d 83 6d 5a bd 67 41 a2 3d
       0.08339501 0.07026896 -0.053327095 0.07922631
000310 c0 c8 2f bc ae 27 2e 3d 4d 62 d6 3c 14 ba c8 3c
       -0.010729015 0.04251831 0.02616992 0.024502791
000320 d4 3c d3 3d 7d 6a cc 3c e9 62 a8 3c 4e 70 10 3d
       0.103143364 0.024953121 0.020554977 0.035263352
000330 94 f4 f6 ba 1c 23 40 3d ee bc 03 3d fa 19 b3 bc
       -0.00188412 0.046908483 0.0321626 -0.021862973
000340 b8 c0 c8 3c 2a fa f9 3b 9f 62 a1 bc d3 3c bd 3d
       0.024505958 0.007628699 -0.019700347 0.09240117
000350 7d 80 f5 bb 8b 4b f5 3c ab b6 97 3d d5 c9 73 bd
       -0.0074921236 0.029943248 0.07407888 -0.059518654
000360 5f 59 37 3b f6 55 2c 3d 24 85 a2 3d c2 f3 72 bd
       0.0027976853 0.042074166 0.07935551 -0.059314497
000370 30 07 5a bd 84 18 4f bd 80 a5 7c bd ec 06 b7 3d
       -0.05322951 -0.05056049 -0.06168127 0.08936867
000380 e6 fc 55 3c 0c 57 92 3c c0 89 a2 bc 72 4d 6f bd
       0.013060784 0.017863773 -0.019841075 -0.058423467
000390 09 c1 e3 3d 5c aa 58 ba 37 26 69 3d 30 d0 d3 3b
       0.11120803 -0.00082651316 0.05692121 0.006464027
0003a0 56 e9 a5 3c 83 d2 26 3c 63 ce cb 3d 3e 92 8c 3d
       0.020252865 0.010182026 0.099514745 0.06863831
0003b0 f5 d1 6d 3d a3 fb 61 3c 40 ed 12 bc d8 d3 2a 3d
       0.05806156 0.013792905 -0.008967698 0.041705936
0003c0 86 67 5b 3d 99 77 ac bb c2 68 73 3d 06 35 20 3d
       0.053565525 -0.0052632806 0.059426077 0.039113067
0003d0 e3 5c 4e 3d e4 78 e0 3b 78 77 18 3d 0b 42 c9 3d
       0.050381552 0.006850349 0.03722331 0.0982705
0003e0 9c e5 84 3c ed ce cd 3c 25 ad 9b 3d 14 ee 6a bd
       0.016222768 0.025123084 0.07601384 -0.057355955
0003f0 e7 ee aa 3c 24 f1 19 3d 9d 41 da 3d 0d 28 94 3d
       0.02086587 0.037583485 0.10657046 0.072342016

fc3.weight f4 [2, 256]
000000 8a 51 96 be 8d 3c d8 3d ce 51 35 be af 8f 62 ba
       -0.29359084 0.10558424 -0.17706987 -0.00086426263
000010 01 d3 37 be 85 83 57 be 2f ee 9b 3d a4 79 53 be
       -0.17951585 -0.21046264 0.07613789 -0.20651871
000020 c5 b9 83 3d 00 d6 dd 3b de 68 4f 3d dc 84 c6 3c
       0.06431917 0.0067698956 0.05063712 0.024233274
000030 a4 cd 31 3d 05 86 85 3d 85 1c b1 3d 26 39 cb 3d
       0.043409005 0.06519703 0.08648018 0.099230096
000040 8c 1c 7c 3d d7 7c e7 3d 2e 10 94 be c3 e6 58 be
       0.061550662 0.11303108 -0.28918594 -0.21181779
000050 f0 2a 98 3d 29 a7 e5 3d d4 33 ad bd 60 80 df 3d
       0.07430065 0.11213524 -0.08457151 0.109131575
000060 70 b1 b5 bd 8c 95 2d be 36 33 85 be 14 ff 62 bd
       -0.08871734 -0.16951579 -0.26015633 -0.055419043
000070 ce a4 8c 3c b6 37 35 be 1e 4c f3 3d 8d 06 c3 bc
       0.017168429 -0.17697033 0.118797526 -0.023806835
000080 75 33 b1 3d fa 48 55 3d e3 3d 17 be fc 64 4c be
       0.08652393 0.05207155 -0.14769702 -0.19960397
000090 d3 d5 2b 3c 3b 79 36 3d 59 bd 2c bd f4 4c 09 3e
       0.010487991 0.044549208 -0.042172763 0.13408262
0000a0 68 c3 f8 3d ea 8e fe bd f1 15 f8 3d 1b 16 26 3d
       0.12146646 -0.124296024 0.1211356 0.040548425
0000b0 33 c2 d3 3d c5 3c ce 3d c9 44 53 be f7 4b db 3d
       0.10339775 0.100701846 -0.20631708 0.107078485
0000c0 9f b8 41 be cf 14 04 3e 16 71 c3 be dd 93 4e 3d
       -0.18918084 0.12898563 -0.38172215 0.050433982
0000d0 de e0 be 3d 0c 75 29 3d 85 77 e0 3d c7 2a ec 3d
       0.09320234 0.04137139 0.109602965 0.11531597
0000e0 3f 0d ef 3d 20 8e 21 3d 90 bc b1 3d 4d 64 fc 3d
       0.11672448 0.03944218 0.086785436 0.12323818
0000f0 72 28 7e 3d e8 c2 a7 3d 96 ae 81 3d 53 d7 8b be
       0.06205029 0.08191472 0.06332128 -0.27312717
000100 e4 17 8a 3d 0e ec 05 3d 39 0f 4c be 59 6a fd 3d
       0.06742838 0.032695822 -0.19927682 0.123738
000110 6b 7f 25 bc c3 f2 16 bb be 3f 2a 3d 54 c5 d9 3d
       -0.01010118 -0.002303288 0.041564696 0.106333405
000120 ac a0 a0 bc 7b b9 24 be b8 c7 f8 bd 3c 92 d4 bc
       -0.019607864 -0.1608638 -0.12147468 -0.025948636
000130 4d 8d 47 be d1 1a b0 3d 0c db 47 bc 71 76 75 be
       -0.19487496 0.08598865 -0.012198221 -0.23970963
000140 39 dd 6a be 21 6c 6f 3d f1 74 32 be 42 d9 1c 3d
       -0.22935952 0.05845273 -0.17427422 0.03829313
000150 92 58 7e 3d 5b 08 1e 3c 43 e3 b7 bb 10 8b d0 bb
       0.062096186 0.009645547 -0.0056118085 -0.006364234
000160 fc 4e 08 be a9 5b 05 3d 83 52 43 3d 9a 4b cc 3d
       -0.1331138 0.032558117 0.04768611 0.09975357
000170 36 c1 b0 3d 7b 99 23 bc 31 c5 8d 3d a0 6c 23 be
       0.08630602 -0.009985323 0.06922377 -0.15959406
000180 c0 9a 6e bd aa f5 bc bd e1 c5 5c bd 7e f4 48 be
       -0.05825305 -0.09226544 -0.05389965 -0.19624516
000190 ac 15 11 be 72 2f 39 be b6 e0 bb 3d 47 f1 d9 3d
       -0.14168423 -0.18084505 0.091737196 0.10641723
0001a0 37 40 d5 3d 70 81 e3 3d 24 d8 c0 bc d3 df f9 bd
       0.10412639 0.111086726 -0.023540564 -0.12200894
0001b0 75 a8 bf 3d 77 c1 10 bc 87 7f 0f 3e 6a dd 1b bd
       0.093583025 -0.008835188 0.14013492 -0.038052954
0001c0 f0 97 e3 bc 36 81 b0 3a b9 18 16 be fb 40 11 3e
       -0.02778241 0.0013466242 -0.14657868 0.14184944
0001d0 ec 3b b4 3c e7 8d 90 3d bc b6 21 be 8c 42 97 be
       0.02200123 0.07058316 -0.15792364 -0.2954296
0001e0 ec 0d 97 bc 88 8b f2 3d 74 0e aa 3c 9a 1f a6 bc
       -0.018439256 0.1184302 0.020758845 -0.02027874
0001f0 c8 c6 00 3d db 2d 2e 3d bd fc fc 3d 9d fc 81 3d
       0.031439573 0.0425242 0.123528935 0.0634701
000200 13 47 8b 3d d0 25 79 be cc 37 41 bd 95 cc e6 3c
       0.06800666 -0.2433083 -0.047172353 0.028173724
000210 b5 ac 89 3d 05 5b 46 be 0d 6c 17 be 48 e4 78 3d
       0.067223944 -0.19370659 -0.14787312 0.06076458
000220 7b 96 77 bb f2 74 ee 3d e8 7c d7 3d 71 ca b1 3d
       -0.0037778902 0.11643399 0.10521871 0.08681191
000230 ce 60 51 be 3c 77 8f bc 4f 36 31 be b6 1f ca 3d
       -0.20447084 -0.01751291 -0.17305873 0.0986933
000240 f8 73 56 bd a5 f7 9a 3d 8d 6c 0f 3d 2a 1b 5e 3d
       -0.05235669 0.07566766 0.03501563 0.054225124
000250 0a 84 f7 3d de 44 2c be 6f bc bd 3d 6c 08 85 bb
       0.12085731 -0.16823146 0.092644565 -0.004059842
000260 d6 2f 56 3d 2f 15 b6 bd 60 1b 16 3e ef e0 02 3e
       0.052291714 -0.08890759 0.1465888 0.12781118
000270 d1 c3 f1 3d 1d 04 25 3e c0 ac a1 3d 61 bd 0f 3e
       0.11804927 0.1611485 0.078942776 0.14037086
000280 06 a1 c4 3c 78 db 22 bc 20 98 c9 bc 9f 75 8f 3c
       0.024002563 -0.009940021 -0.024608672 0.01751214
000290 e0 5a 6e 3d 35 10 6d 3d 3c 51 c3 3d 44 98 0a 3d
       0.058192134 0.057876784 0.095369786 0.033836618
0002a0 89 49 c5 bd 11 b7 5f 3d a5 38 5c bd 3e c9 e3 bc
       -0.09633166 0.054617945 -0.053764958 -0.02780592
0002b0 a5 9c 06 be d8 be e8 3d 91 25 e9 bd 28 76 29 be
       -0.13145693 0.113645256 -0.11384118 -0.1654898
0002c0 65 53 3d be d4 39 ec bd 66 dd 7f bd 20 6f 62 bd
       -0.18488844 -0.11534467 -0.062467 -0.05528176
0002d0 94 4e e4 3c aa 88 fd 3d 19 a1 ae 3d ba 7b 61 3d
       0.0278695 0.12379582 0.08526821 0.055049635
0002e0 82 b5 53 bd a0 59 f0 3d 49 0d af 3d 75 c3 9a 3d
       -0.05168677 0.117358446 0.08547456 0.07556812
0002f0 9a 46 d0 3d 6a 13 ba 3d 40 7a cb bc 42 51 89 3d
       0.10169716 0.09085734 -0.024838567 0.06704952
000300 47 5d 3e 3d 25 c8 ac 3d 2c e7 f8 bc f5 05 e0 3d
       0.046475675 0.08436612 -0.030383669 0.10938636
000310 91 5a 9e be 00 30 a3 37 f9 1d c1 3d 8d fc e5 bc
       -0.30928472 1.9453466e-05 0.09429545 -0.028074527
000320 c6 6a bc 3d 0d 0d 40 bc 19 2f b6 3d e8 db 01 3e
       0.09200053 -0.011721862 0.08895702 0.12681544
000330 0f 06 b3 3d 04 c5 bf 3d ea 0a f6 bc fa d7 bc bc
       0.0874139 0.093637496 -0.030034501 -0.023052204
000340 61 cf fa 3d 35 4f dd 3d b8 20 af bc 2f c1 5c 3d
       0.12246586 0.10806123 -0.021377906 0.05389517
000350 8b 3a 7d 3d 66 e6 44 3c 34 ed ec 3d 6e 29 4a 3d
       0.06182341 0.012017822 0.115686804 0.049355917
000360 07 32 94 be cb f0 ac be 68 79 84 3d a8 5f fa bb
       -0.28944418 -0.3377746 0.06468469 -0.0076407976
000370 08 fe 26 be 2c c1 75 3d 20 93 1c bd 58 11 98 3d
       -0.16307843 0.059998676 -0.038226247 0.07425183
000380 7d 61 8f 3c 64 15 ec 3c de 21 41 bd bc e4 2e be
       0.01750254 0.028818794 -0.04715144 -0.17079443
000390 0e 14 bb 3d 35 96 ca 3d 38 1b c5 3d 7e 15 06 3e
       0.091346845 0.09891931 0.09624332 0.13094136
0003a0 9b 8d b7 be 97 f4 37 be bd 89 06 3e 3c f5 92 3d
       -0.35850224 -0.17964397 0.1313848 0.07175681
0003b0 4d ff 1e 3d ef 0c 04 be 21 ad db bd 2e c6 05 3e
       0.038817693 -0.12895559 -0.10726381 0.13063881
0003c0 76 42 e6 3d a9 38 02 3e 5e 4b de bd ce e4 52 3d
       0.11243145 0.12716927 -0.10854219 0.051487736
0003d0 2a 69 11 3d 55 02 c4 be 12 ac 4d bc 46 fd 1c bb
       0.035500683 -0.3828303 -0.012553232 -0.0023954674
0003e0 f0 f7 95 3c ab 51 d4 3d 7d f2 ef 3d 88 76 0f 3d
       0.018306702 0.103671394 0.11716173 0.03502515
0003f0 fc ef 52 be a4 ed 8d be 0f 17 88 3d 28 c4 d7 3d
       -0.2059936 -0.27720368 0.06645023 0.10535461

fc3.bias f4 [2]
000000 e6 07 00 b7 d9 49 7b 3c
       -7.6312335e-06 0.015337431
