hoho/outputs/CartPole-v1/20220410-215224/models/checkpoint.pth (torch, 272215 bytes, 6 tensors)

fc1.weight f4 [256, 4]
0	0x3ebc0890	0.36725283
1	0xbf4102da	-0.75394976
2	0xbe035934	-0.12826997
3	0xbc1c45d4	-0.009538133
4	0x3d27a032	0.04092426
5	0x3effc251	0.4995294
6	0xbe6d5f35	-0.2318085
7	0xbe64dfa2	-0.22350934
8	0x3c44ab69	0.012003758
9	0x3be8ae71	0.007100873
10	0x3eee2d81	0.46519092
11	0x3e17895b	0.1479849
12	0x3ea408b3	0.32037887
13	0xbe434d17	-0.19072376
14	0xbf349162	-0.70534337
15	0xbed1177c	-0.4083823
16	0x3ebaf983	0.36518487
17	0x3df5207c	0.119690865
18	0x3f21dcaf	0.6322736
19	0x3f0c2d3c	0.5475652
20	0xbe45a86e	-0.19302532
21	0x3e971bbc	0.29513347
22	0x3f2bd12b	0.6711604
23	0x3f0498ab	0.5179545
24	0xbe53b374	-0.20673925
25	0x3dd30f7f	0.1030569
26	0xbf69d345	-0.91337997
27	0xbf0045fc	-0.5010679
28	0x3ece0a3d	0.40242186
29	0x3d815fe9	0.063171215
30	0x3f022347	0.5083508
31	0xbd0a96b9	-0.033835147
32	0xbdcdf2be	-0.10056065
33	0x3e3d1282	0.18464091
34	0x3eb2fd49	0.34958866
35	0x3eb5150e	0.35367626
36	0x3eb3c6b9	0.3511255
37	0xbe9649a8	-0.2935307
38	0xbdc6284b	-0.09675654
39	0xbf0701fc	-0.527374
40	0x3e2e99dc	0.1705088
41	0xbe1084ac	-0.1411311
42	0xbf02cf4a	-0.5109755
43	0xbe79eaf3	-0.24406032
44	0x3ee57446	0.44815272
45	0x3c02a244	0.007973257
46	0xbeedd800	-0.46453857
47	0x3e906817	0.28204414
48	0xbd2c7cd0	-0.042111218
49	0xbcfe9e3b	-0.03108131
50	0xbeaeb141	-0.3411961
51	0xbf0b39d2	-0.543851
52	0xbe2c2340	-0.16810322
53	0x3d92ee2c	0.07174334
54	0x3f814b4c	1.0101104
55	0x3df65072	0.120270625
56	0xbe39f515	-0.18159898
57	0x3ee3a0fe	0.44458765
58	0xbee59274	-0.44838297
59	0xbe1886a2	-0.14895108
60	0x3da49ac9	0.080373354
61	0xbe094cb2	-0.13408163
62	0xbf7c03cd	-0.984433
63	0xbe9d6505	-0.30741134
64	0xbd902e85	-0.07040123
65	0x3e949c53	0.29025516
66	0xbe49027d	-0.19629855
67	0xbd76a53c	-0.060216174
68	0x3e201ef1	0.15636803
69	0xbe648d4e	-0.22319528
70	0xbe9da5f9	-0.3079069
71	0xbcb5ae60	-0.022177875
72	0xbea9624e	-0.33082813
73	0xbf135478	-0.57550764
74	0x3e927c49	0.28610447
75	0xbe87ed39	-0.26548174
76	0x3e878d41	0.26474956
77	0x3e87ce76	0.26524705
78	0x3ee5d678	0.4489019
79	0xbcc137d8	-0.023586199
80	0x3c15bcdb	0.009139265
81	0x3e6ddec9	0.23229517
82	0xbeda8a8c	-0.42683828
83	0xbe4d6422	-0.20057729
84	0x3e910839	0.28326586
85	0x3e9f0436	0.310579
86	0x3e8b5d49	0.27219608
87	0x3ec2b575	0.38029066
88	0x3eb4810f	0.35254714
89	0x3da1b723	0.07896259
90	0xbd3fc30a	-0.046816863
91	0x3efcba37	0.4936082
92	0x3db0d66f	0.0863465
93	0xbe2da0c0	-0.16955853
94	0xbe188801	-0.14895631
95	0x3e1b8d40	0.15190601
96	0x3eb1ed37	0.34751293
97	0xbe1dfa4c	-0.15427512
98	0xbf0cfa00	-0.5506897
99	0xbbd6b5c3	-0.0065524294
100	0xbe991efd	-0.29906455
101	0xbf017c76	-0.5058054
102	0x3ebc79b5	0.36811605
103	0x3e83aad1	0.2571626
104	0xbea2db19	-0.31807783
105	0xbf06e689	-0.5269552
106	0xbe6cb332	-0.23115233
107	0xbd9f7338	-0.07785648
108	0xbf444cd8	-0.76679754
109	0xbe970360	-0.29494762
110	0x3f3b1a13	0.7308666
111	0x3eb56c7a	0.35434324
112	0x3eff12bb	0.49818978
113	0xbefa0cd5	-0.48837915
114	0x3d0e2ad9	0.03470883
115	0xbee07dc3	-0.4384595
116	0xbf2f4d7c	-0.68477607
117	0x3e06bb5a	0.13157406
118	0x3f5c101f	0.859621
119	0xbcf408f5	-0.029789427
120	0x3f02fbec	0.5116565
121	0xbe27d82c	-0.16391057
122	0x3e7e408d	0.24829312
123	0x3e530826	0.20608577
124	0xbe6620e8	-0.2247349
125	0x3e295154	0.1653493
126	0xbe2230dc	-0.15838951
127	0x3d803bc8	0.06261402
128	0xbf18636e	-0.5952672
129	0xbe3fafd5	-0.18719418
130	0x3f167783	0.5877611
131	0x3ec85ecf	0.39134833
132	0x3dab4e83	0.08364584
133	0x3db7560b	0.08951958
134	0x3d7e4899	0.062080953
135	0x3dbe5700	0.09293938
136	0xbeeffa1f	-0.46870515
137	0x3c2a5378	0.010395877
138	0x3f18c963	0.5968229
139	0xbcab2703	-0.020892626
140	0x3df57dfc	0.1198692
141	0x3eab682d	0.33477917
142	0xbd97dc6b	-0.07415088
143	0x3d719aa7	0.05898538
144	0xbebc555e	-0.3678388
145	0x3f2c8f84	0.6740649
146	0x3f263c79	0.64936024
147	0x3e2b7b10	0.16746163
148	0xbf1477e1	-0.5799542
149	0xbeb14a45	-0.34626976
150	0x3d7a2a54	0.061075523
151	0x3f063fcb	0.5244109
152	0x3e046715	0.12929948
153	0x3ef4db82	0.4782372
154	0x3d6765bf	0.056493517
155	0x3e0664a2	0.13124326
156	0x3ebf9c3d	0.37423888
157	0xbef4a769	-0.47783974
158	0xbf077ccd	-0.52924806
159	0xbe95c3f8	-0.29251075
160	0xbf14d12d	-0.58131677
161	0xbebf2ab4	-0.37337267
162	0x3e914a6d	0.28377095
163	0x3e26ed04	0.16301352
164	0x3ead8aaa	0.33894855
165	0x3c6cc4b4	0.014451195
166	0x3f1f201d	0.62158376
167	0xbe26356e	-0.1623132
168	0xbe8dc62f	-0.27690265
169	0xbe07e2fe	-0.13270184
170	0x3e815a0b	0.2526401
171	0x3ee977cb	0.45599207
172	0xbdb0911d	-0.08621428
173	0xbd6b0150	-0.0573743
174	0xbdc0d7f9	-0.094161935
175	0xbe8fbc41	-0.28073314
176	0xbe001abd	-0.125102
177	0xbd98693a	-0.074419454
178	0xbf3adb22	-0.7299062
179	0xbe3aee6b	-0.18255012
180	0xbd8b79f3	-0.06810369
181	0xbe2d0547	-0.16896544
182	0x3eb34cb7	0.35019466
183	0x3e2738d6	0.16330275
184	0x3e877700	0.26457977
185	0x3ed0f8e3	0.40814885
186	0x3e1d9c0e	0.15391561
187	0xbe9231df	-0.28553674
188	0x3e946460	0.2898283
189	0x3f144767	0.5792145
190	0xbe46d0b5	-0.19415553
191	0x3e9ba1e0	0.30396938
192	0xbd876b82	-0.06612302
193	0x3f14154b	0.5784499
194	0x3f31acba	0.69404185
195	0xbe643775	-0.2228678
196	0x3d570a67	0.052500155
197	0x3ea79ba0	0.3273592
198	0xbe464952	-0.19363907
199	0x3ed315ea	0.41227657
200	0xbeb49405	-0.3526918
201	0x3cf26516	0.029589217
202	0x3f576692	0.84140885
203	0x3e8a428e	0.27003902
204	0x3e923441	0.28555492
205	0x3e8b8d02	0.27256018
206	0xbd5e0df2	-0.054212518
207	0xbd74b1ba	-0.059739806
208	0x3dabb968	0.08384973
209	0x3ed9eef7	0.42565128
210	0xbebe0404	-0.3711244
211	0xbe6b148b	-0.22957055
212	0x3ea6803e	0.32519716
213	0x3eac5617	0.3365943
214	0xbec1653c	-0.37772548
215	0x3e366ef3	0.17815761
216	0x3ef93654	0.48674262
217	0xbf4473ce	-0.76739204
218	0xbf2175e5	-0.6307052
219	0xbcde1604	-0.027110107
220	0x3f1abd29	0.60444885
221	0xbf55cadd	-0.8351267
222	0xbf6bc5ef	-0.920989
223	0x3db5afd6	0.08871429
224	0x3c58f6ea	0.013242463
225	0x3e1db432	0.1540077
226	0xbeea0392	-0.4570585
227	0xbe254cc2	-0.16142562
228	0x3ecba6fd	0.3977584
229	0xbeddab4f	-0.4329476
230	0xbebb1b15	-0.365441
231	0xbe881e0e	-0.2658543
232	0xbf24fbcc	-0.6444671
233	0xbe1dcf64	-0.15411144
234	0xbeb2b4a2	-0.34903437
235	0xbd7e052a	-0.062016644
236	0xbf131254	-0.5744984
237	0xbe36211d	-0.17786069
238	0x3ed9e332	0.4255615
239	0x3ec2e3ba	0.38064367
240	0xbd71da69	-0.059046183
241	0x3dbe9b90	0.09307015
242	0xbdd794e7	-0.10526448
243	0xbe97dbb5	-0.2965981
244	0xbdb20a0a	-0.08693321
245	0x3ebef4f9	0.37296274
246	0x3ed2a64d	0.41142502
247	0xbe1c9abb	-0.152934
248	0x3e0ddeac	0.13854474
249	0x3f160e94	0.58615994
250	0xbf153934	-0.5829041
251	0xbda54ee4	-0.08071688
252	0xbe231404	-0.15925604
253	0x3d8fb366	0.070166394
254	0x3f4fb022	0.8112813
255	0x3eee0f93	0.46496257

fc1.bias f4 [256]
0	0x3e2460a8	0.16052496
1	0xbdbc4b98	-0.09194106
2	0xbe885547	-0.2662756
3	0x3ebf218e	0.37330288
4	0x3ee97c40	0.45602608
5	0xbefb389b	-0.49066624
6	0xbecbc8c6	-0.39801615
7	0x3eb605f1	0.35551408
8	0x3f115201	0.56765753
9	0x3f0e7963	0.5565397
10	0x3eb0f851	0.3456445
11	0x3efe7d4f	0.49704978
12	0xbe08c3f4	-0.13356
13	0xbe7dbefe	-0.24779889
14	0xbed1a2ae	-0.40944427
15	0xbeb5dd1e	-0.35520262
16	0xbece4a22	-0.40290934
17	0x3f0f0e11	0.5588084
18	0x3ead3dc0	0.33836174
19	0x3ed40b8f	0.41415069
20	0xbed7c7c0	-0.42144585
21	0x3eb8e854	0.36114752
22	0x3e83c463	0.2573577
23	0x3ee7ed57	0.45298263
24	0x3e070967	0.1318718
25	0xbe010c93	-0.12602453
26	0x3f0acc24	0.54217744
27	0xbea4c280	-0.32179642
28	0x3f0b6afd	0.54460126
29	0x3e707c35	0.23484881
30	0x3ee71ad9	0.4513767
31	0xbebdec0a	-0.37094146
32	0xbe909859	-0.28241232
33	0x3e5abb13	0.21360426
34	0x3e26bf26	0.16283855
35	0x3f01242c	0.5044582
36	0x3ed95cd3	0.42453632
37	0x3e08e42d	0.13368292
38	0x3f01f9bd	0.50771695
39	0x3f05f1dc	0.52322173
40	0xbe140fd5	-0.14459164
41	0x3ea87433	0.32901153
42	0xbeef7fe7	-0.4677727
43	0x3d460158	0.048341125
44	0xbe4e5088	-0.20147908
45	0x3ed78bdd	0.42098895
46	0x3d2a8754	0.041632965
47	0xbec6e723	-0.38848218
48	0x3e8976bf	0.2684841
49	0x3efd8443	0.4951497
50	0xbea94ecb	-0.33067927
51	0x3f0c738c	0.5486381
52	0xbdb963fd	-0.090522744
53	0x3e61e208	0.2205888
54	0xbd441935	-0.0478756
55	0xbf2ecbc2	-0.6827966
56	0xbed1d102	-0.40979773
57	0x3efddb3f	0.49581334
58	0x3eaf4111	0.3422933
59	0xbef8e853	-0.4861475
60	0xbe1cb461	-0.15303184
61	0x3ef41205	0.47669998
62	0xbeafdb26	-0.34346884
63	0xbe82ba34	-0.25532687
64	0x3ed7c68f	0.42143676
65	0x3e3d662e	0.1849601
66	0xbeb90a69	-0.36140755
67	0x3e99e254	0.30055487
68	0xbf0371ed	-0.5134571
69	0x3ecf2d10	0.40464067
70	0xbe14d81b	-0.14535563
71	0x3eab4678	0.334522
72	0x3e7c3729	0.24630417
73	0x3ee692ec	0.45033967
74	0x3d9ec222	0.07751872
75	0xbdf7c771	-0.12098587
76	0x3f0dd6f2	0.55406106
77	0xbea00e09	-0.31260708
78	0x3f07ee2d	0.530978
79	0xbeac80e0	-0.33692074
80	0x3f09acad	0.5377911
81	0x3ee78774	0.4522053
82	0x3eb21c46	0.34787196
83	0xbe019dcc	-0.12657851
84	0xbdd20cc2	-0.102563396
85	0xbe9f39d6	-0.31098813
86	0x3ee45a8c	0.44600332
87	0x3f1ce85d	0.6129206
88	0xbe8faeef	-0.2806315
89	0xbe34dc92	-0.17662266
90	0xbdcb5b60	-0.09929538
91	0x3ead26ad	0.3381857
92	0xbea24a17	-0.3169715
93	0xbdf8263e	-0.12116669
94	0xbe9330cb	-0.28748164
95	0xbedd35ca	-0.432051
96	0xbecdfe7a	-0.40233213
97	0x3e922503	0.28543863
98	0x3efa12ec	0.4884256
99	0xbecb1294	-0.3966261
100	0x3f1aed68	0.60518503
101	0x3f04141e	0.51593196
102	0x3d50709f	0.050888654
103	0x3f16dde8	0.5893235
104	0x3ecaea5a	0.3963192
105	0x3ef9d0bd	0.48792067
106	0xbea58b7f	-0.3233299
107	0x3eebf96f	0.4608874
108	0xbd0ab085	-0.03385975
109	0xbec69948	-0.3878882
110	0x3e3150ce	0.17315981
111	0xbe1b825b	-0.15186445
112	0x3e689d63	0.22716288
113	0x3f0f197c	0.5589826
114	0xbecb901c	-0.39758384
115	0x3ebdef56	0.3709666
116	0x3d9c269d	0.076245524
117	0x3d58e428	0.05295196
118	0xbe532450	-0.20619321
119	0xbed4bd93	-0.41550884
120	0x3f16f8ae	0.58973205
121	0x3ee1d5d6	0.44108456
122	0x3f033995	0.5125974
123	0x3e4e4e09	0.20146956
124	0xbe93594b	-0.28779063
125	0x3e7135ef	0.2355573
126	0x3f126215	0.5718091
127	0xbe8ad262	-0.27113634
128	0x3e3b2086	0.18274125
129	0xbe84af36	-0.25914925
130	0x3ec3e8f6	0.38263673
131	0x3ee32fe5	0.44372478
132	0x3f083a2e	0.53213775
133	0x3efc23ad	0.49245968
134	0x3eff94ea	0.499183
135	0x3d6e3276	0.058153592
136	0xbe03125d	-0.12799974
137	0x3e3635e8	0.17794001
138	0xbeb169fe	-0.34651178
139	0x3e7a38fc	0.244358
140	0x3e2fd62d	0.17171545
141	0x3e9defd5	0.3084704
142	0x3e30979b	0.17245333
143	0x3eca645a	0.39529687
144	0xbe8cd72d	-0.27507916
145	0xbeba48d8	-0.363837
146	0x3f160924	0.586077
147	0x3ef6589e	0.48114485
148	0xbbe622a9	-0.007023175
149	0xbe885a9e	-0.26631635
150	0xbee12d27	-0.4397976
151	0x3cfc2483	0.030779129
152	0x3e24616d	0.1605279
153	0xbe1c3567	-0.15254746
154	0x3f0fd63d	0.56186277
155	0x3eda1ead	0.4260153
156	0xbec6f535	-0.38858953
157	0xbca7a5ea	-0.020464856
158	0xbea0fefd	-0.3144454
159	0x3e0a3169	0.13495411
160	0xbe71ec9a	-0.23625413
161	0x3ebcf9cf	0.3690934
162	0x3e2e98b9	0.17050447
163	0xbeb3b9ba	-0.35102636
164	0xbede96c3	-0.43474397
165	0x3dfad217	0.12247103
166	0xbeb6514c	-0.356089
167	0x3f025697	0.50913376
168	0xbe014d27	-0.12627088
169	0xbcf9b07a	-0.030479658
170	0xbec54d49	-0.38535526
171	0x3ef1d18e	0.4723019
172	0x3e2569d9	0.16153659
173	0xbea88084	-0.3291055
174	0xbe8ea939	-0.27863482
175	0xbe94529f	-0.28969285
176	0xbe733bcd	-0.23753281
177	0x3f2fb8e6	0.6864151
178	0x3e903e17	0.2817237
179	0x3ee7afd4	0.45251334
180	0x3e769805	0.24081428
181	0xbe957625	-0.291917
182	0x3e706f64	0.23479992
183	0xbf04e387	-0.5190968
184	0xbe61f5f4	-0.2206648
185	0xbede3eb7	-0.43407223
186	0xbcf4562c	-0.029826246
187	0xbecff8bb	-0.40619454
188	0xbebbdded	-0.36692753
189	0xbe4b08ee	-0.19827625
190	0xbeb772fc	-0.35829914
191	0xbebb0019	-0.36523512
192	0x3cafc9fe	0.021458622
193	0x3e8b54f4	0.27213252
194	0xbe889827	-0.26678583
195	0x3d844ab5	0.06459562
196	0xbe78d266	-0.2429901
197	0x3e959e43	0.29222307
198	0x3e8a21d5	0.26978937
199	0xbe074b2b	-0.13212268
200	0xbf013d1a	-0.5048386
201	0xbe8fcda0	-0.28086567
202	0x3e8805ec	0.26567018
203	0xbe2d3b20	-0.16917086
204	0xbed4050f	-0.4141011
205	0x3f06bf39	0.5263553
206	0x3eaebeec	0.34130037
207	0xbe9d259e	-0.30692762
208	0xbed8bd2c	-0.42331827
209	0x3f010f7e	0.50414264
210	0x3e071f37	0.13195501
211	0xbe86a847	-0.2630026
212	0x3e870cd7	0.26376984
213	0x3e2a52c7	0.1663314
214	0xbdd2c6da	-0.10291834
215	0x3ef8f09b	0.48621067
216	0x3e903d4f	0.28171775
217	0x3d8a53fb	0.06754299
218	0x3ef3f0fb	0.4764479
219	0x3efa95b6	0.48942345
220	0xbdd1e890	-0.10249436
221	0x3ea5fb9b	0.32418522
222	0x3e8c12ed	0.2735819
223	0x3e477451	0.19477965
224	0x3e80392f	0.25043628
225	0x3f0f629b	0.56009835
226	0x3c9adb6f	0.018903462
227	0x3f0f6715	0.56016666
228	0x3e6920dc	0.22766441
229	0xbe1ae741	-0.15127279
230	0x3e998f12	0.29991966
231	0x3e880a2f	0.2657027
232	0xbe6c1a54	-0.23056918
233	0x3ee793b0	0.45229864
234	0x3e046a33	0.12931137
235	0xbede016e	-0.43360466
236	0x3e39b5c2	0.18135741
237	0x3ecb1446	0.39663905
238	0xbe85a0b5	-0.26099172
239	0xbe898b91	-0.26864293
240	0xbdf54685	-0.11976341
241	0x3e1ae10e	0.15124914
242	0x3ef469dc	0.47737014
243	0x3ec4897b	0.3838614
244	0xbe07416a	-0.13208547
245	0xbf0c86fb	-0.54893464
246	0xbe85f444	-0.26162922
247	0xbefd7af0	-0.49507856
248	0x3eff7f0e	0.49901623
249	0x3efefbfb	0.4980162
250	0x3efb13e5	0.49038616
251	0xbd7c1def	-0.061551984
252	0xbea330d4	-0.3187319
253	0x3d9f6d13	0.07784476
254	0xbe97c58a	-0.29642898
255	0xbe9d3da1	-0.30711082

fc2.weight f4 [256, 256]
0	0x3dc7125a	0.09720297
1	0xbe2da2ca	-0.1695663
2	0xbe2c6e8e	-0.16839048
3	0xbdfec6bd	-0.1244025
4	0xbd934a7a	-0.0719194
5	0xbe89694f	-0.26838157
6	0xbd22df4c	-0.039763734
7	0xbd45b7f3	-0.04827113
8	0x3d8b7fdf	0.06811499
9	0x3dc85a1e	0.097828135
10	0x3bbabb22	0.0056985775
11	0xbd0469d7	-0.0323275
12	0xbd8b79c2	-0.06810333
13	0xbf0e9c2b	-0.55707043
14	0xbd580197	-0.05273589
15	0xbe82aa4b	-0.25520548
16	0xbe2f2235	-0.17102893
17	0x3dd9dce0	0.10637832
18	0xbd9e9509	-0.0774327
19	0xbb04286d	-0.0020165697
20	0xbe461ef5	-0.19347747
21	0xbddbe865	-0.10737685
22	0xbd8481ad	-0.06470046
23	0x3dbde1f2	0.09271611
24	0xbda6052e	-0.08106457
25	0xbd5781ba	-0.05261395
26	0xbd08a814	-0.033363417
27	0xbb5bd67c	-0.003354459
28	0xbbfaa42b	-0.007648965
29	0x3db1b76e	0.086775646
30	0xbd881f1e	-0.0664656
31	0xbcc56498	-0.024095818
32	0xbb7a21c9	-0.003816711
33	0x3d3fdf97	0.04684409
34	0x3dfc5e35	0.12322656
35	0x3e10864c	0.1411373
36	0x3e04607d	0.12927432
37	0x3d246070	0.040131032
38	0x3de7fd60	0.11327624
39	0xbc9a3ae0	-0.018826902
40	0xbddf723c	-0.1091046
41	0xbdc7542f	-0.097328536
42	0x3dfe4583	0.12415602
43	0xbd28920b	-0.041154902
44	0xbe350a43	-0.17679696
45	0x3d64ddf7	0.055875745
46	0xbdcbfa3b	-0.09959837
47	0x3d1188e2	0.035530932
48	0x3d9ac36b	0.07556804
49	0x3deed5d3	0.116618775
50	0xbe09994f	-0.13437389
51	0x3c9c1e41	0.019057395
52	0xbd77ac4e	-0.060467057
53	0x3bfba640	0.0076797307
54	0x3d914b77	0.07094472
55	0x3e2008ce	0.15628359
56	0xbe6bac23	-0.23014884
57	0x3b50bd68	0.0031851176
58	0xbd483220	-0.048875928
59	0x3d92bb90	0.07164681
60	0xbdc07094	-0.093964726
61	0x3ccc38ca	0.024929423
62	0x3d179d3d	0.03701519
63	0xbde5c0e5	-0.11218432
64	0xbdb579e9	-0.08861143
65	0xbdeda4db	-0.11603709
66	0xbe4c3f3c	-0.19945997
67	0x3d16ba31	0.03679866
68	0x3cf214a4	0.029550858
69	0x3c8d11da	0.017220426
70	0xbde2ae49	-0.110683985
71	0x3cb8d5fa	0.02256297
72	0x3b7c77c8	0.0038523544
73	0xbd460adf	-0.04835021
74	0xbda24cc4	-0.07924798
75	0xbdb74c74	-0.08950129
76	0x3d847baa	0.064688995
77	0xbe902499	-0.28152922
78	0x3cf58e38	0.029975042
79	0xbe530f2c	-0.20611256
80	0x3c032aa6	0.008005774
81	0xbbb7b264	-0.0056059826
82	0x3dba9811	0.091110356
83	0xbe34feea	-0.17675367
84	0xbc587a70	-0.013212785
85	0xbd246203	-0.040132534
86	0x3deb8ec9	0.115018435
87	0x3d46b359	0.048510883
88	0xbe458852	-0.19290283
89	0xbe81cae5	-0.2535011
90	0xbe2d957a	-0.16951552
91	0xbd814324	-0.06311634
92	0xbe15f069	-0.1464249
93	0xbe494575	-0.19655402
94	0xbe86a655	-0.26298776
95	0xbe927b3f	-0.28609654
96	0x3dda54ba	0.106606916
97	0x3b5a2e78	0.0033291858
98	0x3db325ed	0.08747468
99	0xbe625868	-0.22104037
100	0x3d3b9c6d	0.045803476
101	0x3c097440	0.008389533
102	0x3eb23c56	0.34811658
103	0x3ca646e2	0.020297471
104	0xbca38c17	-0.019964261
105	0xbd5212d0	-0.051287472
106	0x3dda4196	0.10657041
107	0xbd834bc5	-0.06410936
108	0xbd6fae47	-0.058515813
109	0xbec7a93d	-0.38996306
110	0x3a18b103	0.00058247166
111	0xbdffa3c7	-0.1248241
112	0xbd296db6	-0.041364394
113	0xbc92e624	-0.017932005
114	0xbd88aca7	-0.06673556
115	0x3daddc94	0.084893376
116	0x3e1be7a2	0.1522508
117	0x3d36cdf6	0.044630013
118	0xbdc26773	-0.094923876
119	0x3e956477	0.2917821
120	0xbd5816e5	-0.05275621
121	0xbccfff3e	-0.025390264
122	0xbd528294	-0.05139406
123	0xbdbfe6bd	-0.09370182
124	0xbe551cb0	-0.20811725
125	0x3d391370	0.045184553
126	0x3dbff8bb	0.093736134
127	0xbe3c57d6	-0.18392882
128	0xbd22a31e	-0.039706342
129	0xbe956c1f	-0.29184052
130	0x3da6e531	0.081491835
131	0x3da81027	0.08206206
132	0xbd515526	-0.051106595
133	0x3d4ec181	0.05047751
134	0x3c35e105	0.011101012
135	0xbe2a48ff	-0.16629408
136	0xbcd669e0	-0.026173532
137	0xbd9eda97	-0.077565365
138	0xbe4f3fcb	-0.20239179
139	0x3d7111f8	0.058855027
140	0xbe7ff3e9	-0.24995388
141	0x3c13328c	0.008984219
142	0xbc91b773	-0.01778767
143	0x3d5c3872	0.053764768
144	0xbde6f3b2	-0.1127695
145	0xbdf33685	-0.11875633
146	0x3d3d2a63	0.046183
147	0xbd2e09fb	-0.042489987
148	0xbe1fae7f	-0.15593909
149	0xbed5db98	-0.417691
150	0xbe942981	-0.28937915
151	0x3e6cf7f3	0.2314146
152	0x3cf6a472	0.03010771
153	0xbd5c8263	-0.053835284
154	0x3d90a98b	0.07063588
155	0x3ddd23ae	0.10797821
156	0xbd60abde	-0.054851405
157	0xbdd13c61	-0.102165945
158	0xbdf9261e	-0.121654734
159	0x3d04ec49	0.0324519
160	0xbe64f2f5	-0.22358306
161	0x3ad88916	0.0016520347
162	0xbb9b38f6	-0.004737015
163	0x3d9ed07d	0.0775461
164	0xbe965afe	-0.29366297
165	0x3df1d1f7	0.11807626
166	0x3e1049f1	0.14090706
167	0x3c698a23	0.014254126
168	0xbe3e3c95	-0.18577798
169	0xbcdb8096	-0.026794713
170	0xbdb291d8	-0.08719224
171	0xbd6c4c40	-0.057689905
172	0x3dabdd5b	0.083918296
173	0xbed5ecd4	-0.41782248
174	0x3d9d7413	0.07688155
175	0xbe994548	-0.2993567
176	0xbe4333cc	-0.19062728
177	0x3d7dfb77	0.062007394
178	0xbe29a7db	-0.16567938
179	0x3cb2ff15	0.021850148
180	0x3d9a5e7c	0.07537553
181	0xbe4c5299	-0.19953384
182	0xbe360d1a	-0.17778435
183	0x3e468035	0.19384845
184	0xbcf037a1	-0.0293234
185	0xbe213c77	-0.15745722
186	0xbe85f9bc	-0.26167095
187	0xbf0170b0	-0.5056257
188	0x3d2207bb	0.039558154
189	0xbe287ce9	-0.164539
190	0x3cbc5303	0.022988802
191	0xbecd0d44	-0.40049183
192	0x3ed1ebc3	0.41000184
193	0xbded854b	-0.11597689
194	0xbdd08bf3	-0.10182943
195	0xbd5ad9c5	-0.053430337
196	0xbe0e376b	-0.13888328
197	0xbc1e3f78	-0.009658687
198	0x3e0795a8	0.13240683
199	0xbea3f0bb	-0.320196
200	0xbee8c931	-0.45465997
201	0xbece5ccc	-0.40305173
202	0x3e25f421	0.16206409
203	0xbe88d84a	-0.26727515
204	0x3dd9a63f	0.10627412
205	0x3dac6281	0.08417226
206	0x3c43fbae	0.011961861
207	0xbd172c52	-0.0369075
208	0x3c203143	0.00977737
209	0xbb34f246	-0.0027610227
210	0xba11e57a	-0.00055655057
211	0xbd139f83	-0.036040794
212	0xbe89fa56	-0.26948804
213	0xbd103ca2	-0.035214074
214	0xbe0bb729	-0.13644089
215	0xbc5e13d6	-0.013554534
216	0x3aae10d2	0.0013280159
217	0x3c8a4a43	0.016881114
218	0xbba533cf	-0.0050415765
219	0x3da7d370	0.081946254
220	0xbdfe7bda	-0.124259666
221	0x3c1d89d0	0.009615377
222	0xbde5cd82	-0.11220838
223	0x3dc93729	0.09824974
224	0x3ddac464	0.1068199
225	0x3d210c90	0.03931862
226	0x3d9751d9	0.07388658
227	0x3d98f622	0.07468821
228	0xbe08ca55	-0.13358434
229	0xbea9f5fc	-0.33195484
230	0xbdd94b94	-0.106101185
231	0x3c8f190a	0.017467994
232	0xbde09e79	-0.10967726
233	0x3d0f961d	0.03505527
234	0x3da7175a	0.08158751
235	0xbdeb4ad0	-0.11488879
236	0xbe1a3dbd	-0.15062614
237	0xbdcde1e9	-0.100528546
238	0xbe30466f	-0.17214368
239	0xbe11098a	-0.14163795
240	0x3d68b954	0.056817368
241	0x3deab95b	0.11461135
242	0x3c663e73	0.014052975
243	0xbd9b8ee2	-0.07595612
244	0x3ec18f10	0.3780446
245	0x3d3e38a3	0.04644073
246	0xbe30a11d	-0.1724896
247	0xbd840cb5	-0.06447736
248	0xbd5a9aeb	-0.053370398
249	0x3d7128df	0.05887687
250	0x3d983f0d	0.07433901
251	0xbeef56ed	-0.46746007
252	0xbe4fbb6d	-0.20286341
253	0x3d105c2e	0.03524416
254	0xbee16e67	-0.44029543
255	0xbe25cdf3	-0.16191845

fc2.bias f4 [256]
0	0xbc031aa8	-0.008001961
1	0xbbee30cf	-0.007269002
2	0xbd2ff012	-0.04295356
3	0x3d061086	0.0327306
4	0x3d663951	0.056207005
5	0xbd91a5a3	-0.07111671
6	0xbd0b9289	-0.034075294
7	0x3d2cff93	0.042235922
8	0x3db34f1d	0.08755324
9	0x3d857eb6	0.06518309
10	0x3d34773f	0.044059034
11	0xbc3f15b8	-0.011662893
12	0x3d6d0d64	0.0578741
13	0x3daeed52	0.08541359
14	0x3d38e5fd	0.04514121
15	0xbd05efa6	-0.03269925
16	0x3d57b917	0.05266675
17	0xbdb8c93e	-0.09022759
18	0x3c13bc07	0.009016997
19	0x3dcccf38	0.10000461
20	0xbda591b2	-0.0808443
21	0x3cfef04a	0.031120438
22	0x3db2fd14	0.08739677
23	0x3d6cab3e	0.057780497
24	0xbd82891c	-0.06373808
25	0x3d59e1c8	0.053193837
26	0x3d9e22ff	0.07721519
27	0x3d0a754d	0.033803273
28	0x3d5a9e22	0.053373463
29	0xbd186642	-0.037206896
30	0xbcebbff4	-0.028778054
31	0x3d523a53	0.051325154
32	0x3d30e9a4	0.043191567
33	0x3d0f1c72	0.034939237
34	0x3d0398fd	0.032128323
35	0x3db04446	0.08606772
36	0x3c48ca7d	0.012255308
37	0xbd6273ca	-0.055286206
38	0x3d86401e	0.06555198
39	0x3d096030	0.033538997
40	0x3d93c63f	0.07215547
41	0x3c53b9b4	0.012922693
42	0xbdbd9c7a	-0.09258361
43	0x3d207093	0.03916986
44	0x3d89d884	0.0673075
45	0x3d63ef7d	0.055648316
46	0x3d3205fd	0.043462742
47	0xbd95a632	-0.0730709
48	0x3cee6b6d	0.029103959
49	0x3d9a8298	0.0754444
50	0x3d80a2f6	0.06281082
51	0xbd404d96	-0.04694899
52	0xbd3d4975	-0.046212632
53	0x3d2f14fe	0.04274463
54	0xbccd18db	-0.025036266
55	0x3c1ed216	0.009693643
56	0x3d997919	0.07493801
57	0xbd7abd49	-0.061215673
58	0xbdb16fa8	-0.08663875
59	0x3bd86dd4	0.0066048894
60	0x3d98311e	0.07431243
61	0xbd37612d	-0.04477041
62	0x3ddea943	0.10872128
63	0x3d697b69	0.05700246
64	0x3d21ab4b	0.03947
65	0xbbe4c49f	-0.006981447
66	0x3d3868bb	0.045021754
67	0xbd5e222b	-0.054231804
68	0x3d3a7401	0.045520786
69	0x3d51dc3c	0.051235422
70	0x3db48a69	0.08815462
71	0x3dbb0d53	0.09133401
72	0x3d72d263	0.05928267
73	0x3a3d0abe	0.00072113785
74	0x3cfef285	0.031121502
75	0x39e47346	0.00043573434
76	0xbc939374	-0.018014647
77	0xbd07db48	-0.033168107
78	0x3d134937	0.035958495
79	0x3d74fa74	0.059809163
80	0x3db1a9c2	0.08674957
81	0x3d4a226d	0.049349237
82	0x3d5fdc24	0.0546533
83	0x3d136f8f	0.035995062
84	0xbd65e812	-0.056129523
85	0x3d3c836e	0.04602378
86	0x3d531613	0.051534723
87	0xbb999f88	-0.004688207
88	0xbb547ec6	-0.0032424196
89	0x3c7d8edd	0.015475956
90	0xbc4ce398	-0.012505434
91	0x3da09d2c	0.07842478
92	0x3b03b28f	0.0020095443
93	0x3d7452cf	0.059649285
94	0xbd33fe39	-0.043943617
95	0x3d180aaf	0.037119564
96	0xbce80b4c	-0.0283257
97	0x3ca17a59	0.01971166
98	0x3d4822b6	0.048861228
99	0x3b7c9477	0.003854064
100	0x3d313582	0.04326392
101	0xbc3f649c	-0.011681702
102	0xbd68f0ab	-0.056870144
103	0x3c64a774	0.01395594
104	0x3d9c69b3	0.07637348
105	0x3d4421de	0.04788386
106	0x3d9f5959	0.077807136
107	0x3d3a0008	0.045410186
108	0xbc3997b9	-0.011327677
109	0x3d76ce05	0.06025507
110	0x3b669499	0.0035183786
111	0x3bb56dd9	0.0055367765
112	0xbd65b5c2	-0.05608154
113	0x3dcdd1ec	0.10049805
114	0x3c03e668	0.008050539
115	0x3b026297	0.001989519
116	0x3cf54d5c	0.029944114
117	0x3bcd40d2	0.0062638307
118	0xbd261826	-0.040550373
119	0xbb2ad2f0	-0.002606567
120	0x3c117156	0.008877119
121	0xbaf0bb40	-0.0018366352
122	0xbd1587c7	-0.03650644
123	0x3d828ae7	0.0637415
124	0x3c35c1bb	0.011093552
125	0x3d11086e	0.03540843
126	0x3cd0f2ef	0.025506465
127	0xbb09808c	-0.002098116
128	0xbc04b1d4	-0.008099038
129	0x3dc6d1ed	0.09708009
130	0xbd7cbc99	-0.0617033
131	0xbd316706	-0.04331114
132	0x3d6ed38c	0.058307216
133	0x3bf6e8c0	0.00753507
134	0xbd6c01f2	-0.057619043
135	0x3dac7463	0.084206365
136	0x3d552a3a	0.052042224
137	0xbc195b77	-0.009360186
138	0xbcf879a0	-0.030331433
139	0xbb64cb8c	-0.0034911362
140	0xbd5f990e	-0.054589324
141	0xbbf12d83	-0.0073601617
142	0x3db4410a	0.08801468
143	0x3d085426	0.033283375
144	0x3d2a3ae9	0.041560087
145	0xbce557ec	-0.027996026
146	0x3d7d3374	0.061816648
147	0xbc07f3fb	-0.008297916
148	0x3d87c57c	0.06629464
149	0x3d38cc7b	0.045116883
150	0x3c277a77	0.010222069
151	0x3d1b0353	0.037844967
152	0x3d670e48	0.056410104
153	0x3d404808	0.046943694
154	0xbda2b4a4	-0.07944611
155	0x3d919886	0.0710917
156	0x3d89ca42	0.06728031
157	0x3d25e359	0.04050002
158	0x3da3b89f	0.07994198
159	0x3d25e227	0.04049888
160	0x3cf60edd	0.030036384
161	0xbd6c1ad6	-0.05764278
162	0x3c3ca3a1	0.011513622
163	0x3ddb0176	0.10693638
164	0xbd42d7d3	-0.047569107
165	0xbbb735a1	-0.00559111
166	0xbbc45636	-0.0059917225
167	0x3dbc20df	0.09185957
168	0x3c5cb935	0.013471891
169	0x3daf05ac	0.08546004
170	0xbce1277b	-0.027484646
171	0x3cd6f38b	0.026239177
172	0x3dc9b5ff	0.09849166
173	0x3bb017f2	0.0053739483
174	0x3d8ae859	0.06782598
175	0x3c61acb9	0.01377409
176	0x3d1f6b45	0.03892066
177	0xbcf4df06	-0.029891502
178	0xbb51bd98	-0.0032003876
179	0x3d1b3240	0.03788972
180	0x3baa21e8	0.00519203
181	0xbc77282a	-0.015085259
182	0x3dcbea36	0.099567816
183	0xbd5e7102	-0.05430699
184	0x3dba2643	0.09089329
185	0x39cb04bf	0.00038722713
186	0x3d93412e	0.071901664
187	0x3c064098	0.008194111
188	0x3bf5d6e0	0.0075024217
189	0x3dbaf2da	0.091283515
190	0x3aae4c80	0.0013297945
191	0x3d2331dc	0.03984247
192	0xbbf02401	-0.0073285108
193	0xbcf8bb69	-0.030362802
194	0x3b5a619a	0.0033322335
195	0xbb89eca0	-0.004209116
196	0x3d886296	0.06659429
197	0xbb10281f	-0.002199657
198	0x3d97a83f	0.07405137
199	0x3d7a6396	0.06113013
200	0x3bfce03d	0.007717161
201	0x3d92fb90	0.07176888
202	0xbd4e0b8f	-0.050303992
203	0xbcc9aa14	-0.024617232
204	0xbdb6303d	-0.088959195
205	0xbb33dd2c	-0.002744506
206	0xbd95ddb3	-0.073176764
207	0x3d9bcad6	0.07607047
208	0x3d277603	0.04088403
209	0xbd96c231	-0.07361258
210	0x3c0eab82	0.008707883
211	0xbc4bf9b8	-0.012449674
212	0x3d9fe329	0.07806999
213	0x3cc6686d	0.024219716
214	0x3dc14742	0.094374195
215	0x3d6ef347	0.058337476
216	0x3d9fafc8	0.077971995
217	0xbc809124	-0.015694208
218	0x3d215e4a	0.03939656
219	0x3ccc1c73	0.02491591
220	0xbd395a26	-0.045251988
221	0x3de79ec5	0.1130958
222	0x3e26b935	0.16281588
223	0xbbe6f3df	-0.0070481147
224	0x3d84c2d2	0.064824715
225	0x3d967b7e	0.07347773
226	0x3d433fe0	0.047668338
227	0x3d6ab60e	0.057302527
228	0x3d577001	0.05259705
229	0x3bb3d1f9	0.005487677
230	0x3dcd26e9	0.10017187
231	0xbc3e8b62	-0.011629911
232	0xbb7945ed	-0.0038036064
233	0x3d44a8bb	0.048012476
234	0x3ccea7b8	0.025226459
235	0x3d30dac7	0.043177392
236	0x3da6f0b7	0.081513815
237	0xbd18dd3e	-0.037320368
238	0x3cd2448e	0.025667455
239	0x3da5b49f	0.08091091
240	0x3cb2f0f4	0.021843411
241	0x3dc4291f	0.09578156
242	0xba373ef5	-0.00069902773
243	0x3d655594	0.055989817
244	0xba415249	-0.0007374627
245	0xbcd435ea	-0.025904614
246	0x3d9b7ef8	0.07592577
247	0x3db30d99	0.08742828
248	0xbac20573	-0.0014802649
249	0x3d820e5d	0.06350396
250	0x3cca9735	0.024730304
251	0x3d06794b	0.032830518
252	0xbb070067	-0.0020599605
253	0x3cf22822	0.029560152
254	0x3dcc0b4b	0.099630915
255	0xbd11f62e	-0.035635166

fc3.weight f4 [2, 256]
0	0x3e652d30	0.22380519
1	0xbe519fae	-0.20471069
2	0xbd130dda	-0.03590188
3	0xbd125d16	-0.035733305
4	0x3e40df59	0.188352
5	0xbd242d5c	-0.04008232
6	0x3f015aa9	0.5052896
7	0x3e7f02c7	0.24903403
8	0x3dca9964	0.09892538
9	0x3e86c22d	0.2632002
10	0xbd44c559	-0.048039768
11	0xbd114ac8	-0.035471708
12	0xbe8970f4	-0.2684399
13	0x3e7edcc8	0.24888909
14	0x3e824c16	0.25448674
15	0xbc826cb8	-0.015920982
16	0x3e316272	0.1732271
17	0xbecc09d2	-0.39851242
18	0x3e25eaec	0.16202897
19	0x3e6ae18c	0.22937602
20	0xbe9cfdc0	-0.30662346
21	0x3edfabc1	0.43685725
22	0x3e861fd1	0.2619615
23	0x3e117dfa	0.14208212
24	0xbd01d41f	-0.031696435
25	0x3ea1972e	0.31560653
26	0x3e4ac15d	0.19800325
27	0x3e392046	0.18078718
28	0x3ca6a853	0.020343935
29	0xbe519847	-0.20468245
30	0x3eba1bad	0.3634924
31	0xbcdb1d30	-0.026747316
32	0x3e83d876	0.25751084
33	0xbd85dac9	-0.065358706
34	0x3e541c9c	0.20714039
35	0x3e5495d5	0.20760281
36	0x3e2ae9b7	0.16690718
37	0xbed023ea	-0.406524
38	0x3e55c75f	0.20876835
39	0x3e23e082	0.16003612
40	0x3e3baa47	0.18326674
41	0x3e0b3ff8	0.13598621
42	0xbeef91d5	-0.4679095
43	0xbd04409c	-0.03228818
44	0x3e547381	0.20747186
45	0x3dfdf4c8	0.12400204
46	0x3d0a653c	0.03378795
47	0xbdb14be3	-0.08657052
48	0x3e5c53ed	0.2151639
49	0x3e1f84ea	0.15578046
50	0x3e70e064	0.23523098
51	0xbef2ba4b	-0.47407755
52	0xbc1a3581	-0.00941217
53	0x3e4ec14c	0.20190924
54	0x3e765fad	0.24059935
55	0x3df5c673	0.12000742
56	0xbe3362e1	-0.17518188
57	0x3bdbba66	0.00670557
58	0xbee9e1e4	-0.45680153
59	0x3e68326d	0.22675486
60	0x3e0d5d24	0.13805062
61	0xbbba3d43	-0.0056835725
62	0x3e74fdd1	0.23924948
63	0x3cef6973	0.029225087
64	0x3e628635	0.22121508
65	0x3e800e04	0.25010693
66	0x3e0cdde7	0.13756524
67	0xbe3615d7	-0.17781769
68	0xbc81a81c	-0.015827231
69	0xbb0f62c0	-0.0021878928
70	0x3e4f6875	0.20254691
71	0x3e6f57df	0.23373364
72	0x3e8ee5bb	0.27909645
73	0x3e54a7ea	0.20767179
74	0x3e820293	0.2539259
75	0xbb3e9c87	-0.0029084997
76	0x3bd6cf50	0.0065554753
77	0xbe6ebd3f	-0.23314379
78	0x3e32bd1a	0.17454949
79	0x3e5189f4	0.20462781
80	0x3e79efd5	0.24407895
81	0x3dbea67b	0.093090974
82	0x3f795dfb	0.9740903
83	0x3e8e14fc	0.27750385
84	0x3c7eaa80	0.01554358
85	0x3e73091d	0.23733945
86	0xbcd492f8	-0.025948986
87	0x3eb86c36	0.36020058
88	0xbdc919c7	-0.0981937
89	0xbd7d659f	-0.06186449
90	0xbcabee72	-0.020987723
91	0x3e74ea31	0.23917462
92	0x3e9b43bf	0.30325124
93	0x3e4437e2	0.19161943
94	0xbe668c8a	-0.22514549
95	0x3e5f7c04	0.21824652
96	0xbcb37ac4	-0.021909125
97	0x3ea8409f	0.32861802
98	0xbf08f51c	-0.5349901
99	0xbcdeaf79	-0.027183281
100	0x3e8f8fea	0.28039485
101	0x3e97b477	0.2962987
102	0xbe8f1f3a	-0.2795351
103	0xbcb01c47	-0.021497859
104	0xbe4e3c6a	-0.20140234
105	0x3e135207	0.1438676
106	0x3e765f0b	0.24059694
107	0x3e3e5d5a	0.18590298
108	0xbc5c1693	-0.0134331165
109	0x3e444f41	0.19170858
110	0xbe29c841	-0.16580297
111	0xbe6b2622	-0.22963765
112	0xbe598d57	-0.21245323
113	0xbe55cd55	-0.20879109
114	0x3e37a596	0.1793426
115	0x3e8653d4	0.2623583
116	0x3e1ee4c2	0.15516952
117	0x3e588ddc	0.21147865
118	0xbdde4c65	-0.10854415
119	0x3e81a80d	0.25323525
120	0xbe9f9ee2	-0.31175905
121	0xbd1e099e	-0.03858339
122	0xbca57d4a	-0.020201344
123	0xbe3eae43	-0.18621163
124	0x3e22d066	0.1589981
125	0x3e5631db	0.20917456
126	0x3e8de565	0.27714077
127	0x3e3fdb59	0.18736018
128	0x3e4677fc	0.19381708
129	0xbf00003e	-0.5000037
130	0xbc30d620	-0.010793239
131	0x3d644287	0.055727508
132	0x3e5d07ea	0.2158505
133	0x3e94fcea	0.29099208
134	0xbebfc7c2	-0.3745709
135	0xbd8ad534	-0.067789465
136	0x3de02c9d	0.10946009
137	0xbc96b039	-0.018394576
138	0x3cf50810	0.029911071
139	0x3e8ae0b2	0.27124554
140	0xbd162670	-0.03665775
141	0x3e431438	0.19050682
142	0xbe35e643	-0.17763619
143	0x3e0d29ea	0.1378552
144	0xbcfefc0c	-0.031126045
145	0x3bd76341	0.0065731113
146	0x3dedd6c2	0.116132274
147	0x3daa72f1	0.083227046
148	0xbe4903b3	-0.19630317
149	0x3e62d4cd	0.2215149
150	0xbe6a0477	-0.22853266
151	0xbc0a49b8	-0.0084404275
152	0x3e810d54	0.2520548
153	0x3e9c611d	0.30542842
154	0xbd730342	-0.05932928
155	0xbe56ab7b	-0.20963852
156	0x3e5ba7ff	0.21450804
157	0xbe86c69a	-0.26323396
158	0x3e477f9c	0.19482273
159	0x3ddb9751	0.10722221
160	0xbed028a8	-0.40656018
161	0xbd1a06c0	-0.037604094
162	0xbcb80a42	-0.022465829
163	0x3e7e315c	0.24823517
164	0xbd58ed3c	-0.05296062
165	0xbec1a062	-0.37817675
166	0xbe1980d7	-0.14990555
167	0x3df40ed7	0.11916893
168	0x3e53c371	0.20680024
169	0x3e54f2ba	0.20795718
170	0x3cb8c3eb	0.022554358
171	0x3e1b6c50	0.15178037
172	0x3e492d34	0.1964615
173	0xbea65f84	-0.32494748
174	0x3e8fd850	0.2809472
175	0x3e620332	0.22071531
176	0x3e17ba87	0.14817248
177	0xbef4adad	-0.47788754
178	0x3e0ee794	0.13955528
179	0xbc964376	-0.018342715
180	0x3e49f53c	0.19722456
181	0xbd310dd2	-0.04322607
182	0x3e4288b9	0.18997468
183	0x3b349620	0.0027555302
184	0xbf232eeb	-0.63743466
185	0xbd503848	-0.050834924
186	0x3e66f75d	0.22555299
187	0xbd73c26d	-0.05951159
188	0xbc66d778	-0.014089458
189	0x3e581cbc	0.21104711
190	0x3e562058	0.20910776
191	0xbc0b3079	-0.0084954435
192	0xbe90030f	-0.28127334
193	0x3ba3ebc7	0.005002472
194	0x3e3b3a28	0.18283904
195	0xbe80d778	-0.2516439
196	0x3e7ca6b0	0.24672961
197	0xbc017671	-0.007901774
198	0x3e2b0b8f	0.16703628
199	0x3e359bca	0.1773521
200	0xbe8bcfcb	-0.2730697
201	0x3e62d575	0.2215174
202	0xbc36f8a0	-0.011167675
203	0x3e5dcdc5	0.21660526
204	0xbe930edd	-0.28722277
205	0x3e5b2d16	0.21403918
206	0xbe805c0c	-0.25070226
207	0x3e724006	0.23657236
208	0x3e37e991	0.17960192
209	0xbe64c4d9	-0.22340716
210	0x3e4d7347	0.20063506
211	0xbd6219af	-0.055200275
212	0x3e6e781b	0.23288004
213	0xbca59c51	-0.020216139
214	0x3e3f14ed	0.18660326
215	0x3df44989	0.11928088
216	0x3e70cf42	0.23516563
217	0x3e581177	0.21100412
218	0x3df7e591	0.12104333
219	0xbd0ebf7e	-0.03485059
220	0xbe5eb931	-0.21750332
221	0x3ddc05fc	0.10743329
222	0x3db9b304	0.09067348
223	0x3e563f9e	0.20922706
224	0x3e705e26	0.23473415
225	0x3df789a1	0.120867975
226	0x3e467adf	0.19382809
227	0x3e548449	0.20753588
228	0x3e67a148	0.22620118
229	0xbe3843ac	-0.17994565
230	0x3e343c0e	0.17601034
231	0x3cbb9258	0.02289693
232	0x3e30f388	0.172804
233	0xbe2d5e26	-0.16930446
234	0x3e5b8827	0.21438657
235	0x3e5d3c94	0.2160514
236	0x3e24a1bb	0.1607732
237	0x3d12b6f8	0.035819024
238	0xbd4e8268	-0.050417334
239	0x3e8083c5	0.25100532
240	0x3e065b75	0.13120826
241	0xbf13dd82	-0.5775987
242	0xbd5cdcc1	-0.053921465
243	0xbc819934	-0.015820123
244	0x3e895f1a	0.2683037
245	0x3dfc71e8	0.123264134
246	0x3e38efd7	0.18060242
247	0x3e4572dd	0.19282098
248	0xbc956568	-0.01823683
249	0xbe8b5776	-0.27215165
250	0x3e23c845	0.15994366
251	0xbd0e2568	-0.034703642
252	0x3e5e3d30	0.21703029
253	0x3e1b31dd	0.1515574
254	0x3e72e0b1	0.23718525
255	0x3c54e718	0.01299455

fc3.bias f4 [2]
0	0x3d3e36fa	0.04643915
1	0x3da680c2	0.08130027
