hoho/outputs/CartPole-v1/20220409-213845/models/dqn_checkpoint.pth (torch, 71511 bytes, 6 tensors)

fc1.weight f4 [128, 4]
000000 8f be 8e 3e c3 03 55 be bb cf 92 bd 84 35 34 bd
       0.2787976 -0.20802216 -0.07168528 -0.04399635
000010 82 88 b3 3e af c6 fd 3d bc ac a9 be cb 7b 0c bc
       0.35065085 0.123914115 -0.33139598 -0.008574436
000020 bf a7 da be 6a bf 76 be e3 71 11 3e d5 cb eb bd
       -0.42706105 -0.24096456 0.142036 -0.11513487
000030 f9 80 94 3e aa bc 99 3e 3b f5 a4 be 2d 92 8b be
       0.29004648 0.30026752 -0.32218346 -0.2725996
000040 fc 7e cf be 14 49 8c 3e 7e c5 d7 3d 57 5a 8a 3b
       -0.4052657 0.27399504 0.105357155 0.004222195
000050 e7 90 32 3e 1f 39 a8 be 2d 7f 05 be 30 45 29 be
       0.17438088 -0.3285608 -0.13036795 -0.16530299
000060 c9 a6 f2 be 97 e6 b2 3e 32 c7 ad bd b9 e5 a0 3d
       -0.47392872 0.3494155 -0.08485259 0.07856316
000070 a8 af 59 be d4 9f 00 3e ac d9 01 3f 13 90 2a bd
       -0.21258414 0.1256097 0.50722766 -0.041641306
000080 7c 31 db 3e 85 5e cb be 8c 9e 9a 3e 58 d0 04 3f
       0.4281119 -0.3972055 0.30199087 0.5188041
000090 f1 05 aa be c5 5d e3 be 75 fe 22 be d0 41 f6 3e
       -0.33207658 -0.44407478 -0.1591738 0.48097086
0000a0 4b 7d c8 be f3 8d 99 be e8 48 9f be 8a b0 e9 3e
       -0.3915809 -0.2999111 -0.3111031 0.456425
0000b0 1d 89 cb be 25 f6 b6 be bd d7 1c 3f ef d0 8b 3e
       -0.39753047 -0.35734668 0.6126669 0.2730784
0000c0 1e f1 55 bd 6d 8c 97 3e 2b 13 83 3e c3 ac 68 3e
       -0.0522319 0.29599324 0.25600561 0.22722153
0000d0 f5 86 59 3e 43 dc 4f 3e ad 52 2d be 5d 25 b3 3e
       0.21242888 0.20298867 -0.1692607 0.34989443
0000e0 69 cb d9 3d 67 58 0a be 8d 0c fa 3e a3 57 1c 3e
       0.106345005 -0.13510285 0.488377 0.15267806
0000f0 c7 42 aa be c5 e5 ba 3e a1 37 bd 3d ba 95 8e 3e
       -0.33254072 0.36503425 0.09239126 0.27848607
000100 a7 2a 68 3e dc 0f c8 3e 08 51 eb be ad 09 45 3e
       0.2267252 0.390746 -0.4596026 0.19241972
000110 f1 24 ff bd 56 aa db be b9 bd e7 3e 00 0b 91 3b
       -0.12458218 -0.42903394 0.45261934 0.00442636
000120 64 1b 4f bd 85 63 88 3e 50 42 04 3d 71 0f bb be
       -0.05056323 0.26638427 0.032289803 -0.36535218
000130 d8 bd a3 be 74 bf 63 3e c8 cb 10 3e 82 fe 2a 3d
       -0.31980777 0.22241002 0.14140236 0.041746624
000140 91 9f ce be 5e c8 a5 be 92 66 d6 be 55 9e 1d 3e
       -0.40356115 -0.3237943 -0.4187513 0.1539243
000150 17 22 99 3d 4a cc d6 bb 12 69 8c be 5b 64 d5 3c
       0.07477205 -0.006555115 -0.27423912 0.02604883
000160 32 fe 51 bc d3 0d aa bd 87 c6 ba 3d a2 d6 f2 3e
       -0.012816953 -0.08303418 0.09119897 0.47429377
000170 ba 20 b8 be 95 f5 01 bf 42 09 b4 bd df 87 9c 3e
       -0.35962468 -0.50765353 -0.08790828 0.3057241
000180 0e d2 f6 3d 4a 28 39 3e b1 be ce be 9a bb b6 3e
       0.120517835 0.18081775 -0.4037986 0.35690004
000190 49 aa 7d 3d 78 cf e8 be 45 d1 90 3e 48 67 ae bd
       0.061929975 -0.45470786 0.2828466 -0.08515793
0001a0 78 ae fc 3e 60 3d cf be 7a fd 03 bf 1e 1a 4e 3e
       0.4935186 -0.40476513 -0.5155865 0.2012715
0001b0 e4 37 c5 3e 9a dc 31 3e 48 d4 d2 3e c7 2e c4 be
       0.38519204 0.17369309 0.41177583 -0.38316938
0001c0 44 97 a5 be 08 79 78 bc 04 38 26 3e a7 d5 c0 3e
       -0.3234197 -0.015165575 0.16232306 0.37663004
0001d0 fb 6b cc 3e a6 d8 d1 3d 94 84 7a be b9 37 a2 be
       0.39926133 0.102464005 -0.24464637 -0.31683138
0001e0 4a c9 d3 bd ca be 46 be 41 57 33 3e 50 79 9a 3e
       -0.10341127 -0.19408718 0.17513753 0.3017068
0001f0 18 07 b6 3e 46 3a 56 be bf 13 0c bf 25 d3 84 3c
       0.35552287 -0.20920667 -0.5471763 0.016213963
000200 14 6e 83 ba 44 6f 01 3f 42 69 90 3e 96 e9 c7 3e
       -0.0010027313 0.505604 0.28205305 0.390454
000210 90 cc 73 be 60 85 d7 3e 9b 8a 1e 3c 4d 65 25 3e
       -0.23808503 0.42093945 0.009676601 0.16151924
000220 94 a6 db bc 98 45 5c be 21 68 67 be 00 73 34 be
       -0.02681283 -0.21510923 -0.22598316 -0.17621994
000230 90 b1 01 3e d7 4d 24 bd 00 6c 82 3e d6 52 ff 3e
       0.12665391 -0.040113296 0.25473022 0.49867886
000240 f8 b8 b8 bd 26 30 c1 be 81 25 83 3c f7 b4 e0 3e
       -0.09019655 -0.37732047 0.016009094 0.43888065
000250 7c f2 06 3e e0 a8 b8 be d4 fb f6 3e ec b9 49 be
       0.13178438 -0.3606634 0.48239005 -0.1969983
000260 34 b2 1d bd 46 b4 a9 be 7b 3f f9 bd 2e 29 ef 3e
       -0.038500026 -0.3314535 -0.12170311 0.46711105
000270 70 9a 4f 3e 3e 8f d4 3c 04 b6 d9 3e e2 f9 d4 bd
       0.20273757 0.02594721 0.4252168 -0.10399224
000280 60 ee 1c be dc f1 b5 3e e7 43 fd 3c 94 8f d2 3e
       -0.15325308 0.35536087 0.030916167 0.41125166
000290 03 11 a6 be 58 75 04 3f af 29 9c bd b8 1a df be
       -0.32434854 0.5174155 -0.07625138 -0.43575072
0002a0 d9 56 ac be e1 59 5b 3e 26 14 c6 be 80 06 d1 3d
       -0.3366001 0.21421005 -0.38687247 0.10206318
0002b0 08 d6 03 be 26 62 ac be 08 16 ad 3d 2f 07 c5 bd
       -0.12874615 -0.3366863 0.08451468 -0.09620511
0002c0 c8 cf a3 3e f1 97 67 bc 71 f2 09 3c 56 14 f1 be
       0.31994462 -0.014135347 0.008419619 -0.47085828
0002d0 e1 23 4f be b4 8f e5 3d 16 85 9f be 10 ed b3 3e
       -0.2022853 0.1120905 -0.31156224 0.35141802
0002e0 1c 1a 8a be 1f 17 9c 3d 65 e1 7b 3e f6 8d 99 3d
       -0.26973045 0.076215975 0.245977 0.0749778
0002f0 6b c7 d7 3e 7a 57 bb 3e cb ff 4a 3d 6c 1e 8c be
       0.4214433 0.36590177 0.04956035 -0.2736696
000300 1b 3c 1f be 67 3f b6 3e 90 80 2f be f9 70 ee 3e
       -0.15550272 0.35595247 -0.17138886 0.46570566
000310 16 1a 14 bf 06 05 09 bf ca cc c5 bd 27 92 27 3d
       -0.57852304 -0.5352329 -0.09658201 0.040910866
000320 22 a1 27 be 1c df 87 be f6 94 9d 3b 91 5a 31 be
       -0.16370061 -0.26537406 0.0048090173 -0.17319705
000330 b9 9a e6 be 66 6e 69 be bf 77 75 be 9a 37 85 be
       -0.4503992 -0.2279602 -0.23971461 -0.26018983
000340 b1 d7 a3 be 72 52 03 3f a2 00 b6 3e f7 aa 0e be
       -0.32000497 0.51297677 0.35547358 -0.13932405
000350 5a e2 8d 3d bf f3 86 3e d6 59 90 bd d4 63 e2 3e
       0.06927939 0.2635784 -0.07048385 0.44216788
000360 c5 22 f4 3e 59 5d ac 3d 97 fe e9 3c 3a da 7b 3e
       0.47682777 0.08416242 0.02856378 0.24594966
000370 78 a0 9f 3e cb 24 aa be 90 d5 c8 3d e9 1a 41 3e
       0.31177115 -0.33231196 0.09806359 0.18857922
000380 1e f0 e7 3e ac 08 b9 3e 62 0c d3 3e 3f 63 86 bd
       0.45300382 0.3613943 0.41220385 -0.065618984
000390 b7 86 e9 bd 40 58 34 3d a8 c5 ac 3e 72 3e d4 3e
       -0.11402648 0.044029474 0.3374455 0.41453892
0003a0 19 09 cf 3e 29 67 97 bd fb 6c 9b be 6a 95 76 bd
       0.40436628 -0.07392723 -0.30356583 -0.060201086
0003b0 eb e2 06 bf b0 fc ab 3d fb 8e 07 3e 76 db 07 3f
       -0.5269 0.08397806 0.13238136 0.53069246
0003c0 25 97 60 3d 45 c2 a6 be f9 78 7d 3e 8b 4d e9 3e
       0.054831643 -0.3257009 0.24753179 0.45566973
0003d0 06 6a de be 15 a1 2a 3e 8c ad 03 bf a1 aa d6 be
       -0.43440264 0.1666301 -0.51436687 -0.41927055
0003e0 0c ae f9 be de 81 88 3e b6 8c 7e be 41 c0 37 3e
       -0.487656 0.2666158 -0.24858364 0.17944433
0003f0 4a 2b f5 3e b9 f8 64 be 89 43 f9 be 80 21 f6 be
       0.4788459 -0.22360505 -0.48684338 -0.48072433

fc1.bias f4 [128]
000000 81 f4 4b 3e 0e 80 ff 3e 32 6e 67 3e c1 4b f9 3e
       0.1991749 0.49902385 0.2260063 0.48690608
000010 d4 e7 0d 3f dc 10 0c 3f f0 84 00 3f 59 76 80 3e
       0.55431867 0.54713225 0.50202847 0.25090292
000020 8d 8a 2c bd 58 4d 0f 3f e3 7a a4 3e 69 39 b4 be
       -0.04212432 0.5597739 0.32125005 -0.3520005
000030 c4 e2 16 3f 5c d1 06 3f e6 a2 cd bc 79 a7 a4 3e
       0.58939767 0.5266321 -0.02510209 0.32159021
000040 70 dc a6 be 31 c6 fb 3d a0 44 ce 3e d4 72 0b 3f
       -0.32590055 0.122936614 0.40286732 0.5447209
000050 41 d6 8c 3e b6 42 b1 3e 64 d3 b7 be 6e 28 8a be
       0.27507213 0.3462121 -0.35903466 -0.2698397
000060 79 3a 06 3f 85 c7 1d 3f e3 8f e1 3e 61 42 03 3f
       0.5243297 0.6163257 0.4405509 0.5127316
000070 73 84 54 be 57 59 94 be 39 df 05 be 56 45 a3 be
       -0.2075365 -0.2897441 -0.13073434 -0.31888837
000080 f0 98 82 3e e8 82 db 3e ae ae 48 3e 63 06 10 be
       0.25507307 0.4287331 0.19597885 -0.14064936
000090 f3 0e 9a be d4 0f fa be a4 99 0a 3f 51 54 93 be
       -0.3008953 -0.488402 0.54140687 -0.28775266
0000a0 4e c7 02 3f e8 b5 c0 be 58 65 12 be 9e 5d 8b 3e
       0.51085365 -0.37638783 -0.14296472 0.27219862
0000b0 36 75 ca bc 00 85 fa bd fc 38 23 3e a3 6b 0c 3f
       -0.024714094 -0.12232399 0.15939707 0.5485174
0000c0 3f 9f 76 bd 15 d8 d8 bd f7 ed 16 3e 36 9a a8 be
       -0.060210463 -0.105880894 0.14739214 -0.32930154
0000d0 7b 9a f2 bd f2 5f 02 be 15 f9 ed 3e 06 98 9b be
       -0.11845871 -0.12731913 0.46479097 -0.30389422
0000e0 b6 e1 ff 3e b6 d6 16 3f 98 59 19 3f 5b ac 35 be
       0.4997689 0.5892137 0.59902334 -0.1774153
0000f0 e0 49 88 3e b9 da 5a be 75 31 6b be 46 dc 5d be
       0.26618862 -0.21372499 -0.22968085 -0.21666059
000100 f9 60 3e be 63 d9 eb bd c8 78 ed 3e b2 51 07 3f
       -0.1859168 -0.115160726 0.4638121 0.5285903
000110 78 9a 99 3e cb 05 32 3b 39 e7 f9 be dd ac 6e be
       0.30000663 0.0027164097 -0.4880922 -0.2330813
000120 4c f8 90 3e 7b 08 92 3e 65 5b f7 3e b8 3f fb bd
       0.28314435 0.28522095 0.48311916 -0.12268013
000130 e4 44 8f 3e b5 1c 10 3f d0 e8 b8 3e 7a ea bf 3e
       0.27982247 0.56293803 0.36115122 0.3748358
000140 19 ad ac 3e 0c 51 7c 3e 4d d1 8c be d2 68 0b 3e
       0.33725813 0.24640292 -0.27503434 0.13614205
000150 68 c8 eb 3d be a7 ca 3d 2d a6 ba bd a9 f5 c0 bd
       0.11512834 0.098952755 -0.09113727 -0.09421856
000160 67 58 db 3e 27 23 92 3e c0 fe a2 3e 5a 8c ea 3e
       0.42840883 0.28542444 0.31834984 0.45810205
000170 58 a7 9c be 19 7c 00 3f e6 42 e5 be c0 d5 86 3e
       -0.30596423 0.5018936 -0.44777602 0.26334953
000180 4b 6d 13 3f 37 30 fd 3e aa 38 11 3e c4 c8 14 3f
       0.5758864 0.49450848 0.14181772 0.58118844
000190 e2 f4 b2 be 4e 3a 47 3e fa 6a b8 3e e5 16 9d 3e
       -0.34952456 0.19455835 0.36019117 0.3068153
0001a0 06 dd b3 3e 17 69 0b be 31 d4 3e 3e f9 c5 12 3f
       0.35129565 -0.13614307 0.18635632 0.5733333
0001b0 ad 1a 90 3e 1b de 97 3e 4c 43 dc be d6 67 68 be
       0.28145352 0.2966164 -0.43020093 -0.2269586
0001c0 42 2b 40 be c0 33 d1 be dc 17 87 3d fe b5 cd bc
       -0.18766502 -0.40859795 0.06596348 -0.025111195
0001d0 e1 0b 0a 3f 6c dc 05 3f 48 2b 91 be f4 3a 5d 3d
       0.53924376 0.5228946 -0.28353333 0.0540113
0001e0 c2 5b 3a be 56 8b f3 bb c3 89 a6 3e 67 80 3d 3e
       -0.18199065 -0.0074323816 0.3252698 0.18506013
0001f0 f3 db ee 3e 0c 05 0a be f7 16 2c 3e 85 bf c0 3e
       0.46652183 -0.13478488 0.16805635 0.37646118

fc2.weight f4 [128, 128]
000000 8d d1 c8 3d 3b fc 39 3d 77 b8 9d 3d cb 47 03 bd
       0.09805594 0.04540656 0.077011995 -0.03205089
000010 f8 fd b2 3d 7c c2 1d 3b 3f 23 b7 3d 85 4b de 3d
       0.08739847 0.002407222 0.089422695 0.10854248
000020 0b 50 05 bc 7d da ca 3d 18 cf a9 3c e9 77 ed bd
       -0.0081367595 0.099049546 0.020728633 -0.11595137
000030 b1 dc b4 3d 5f 53 01 3d ec 4e f5 bd dd fd a3 3b
       0.08831156 0.03157365 -0.11977944 0.005004628
000040 6d 68 ca 3d 1d 8b ba 3b fe 78 71 3d 76 d1 d9 3d
       0.09883199 0.005692853 0.058953278 0.10635655
000050 34 8b 22 bd 15 f8 c2 3c b0 97 02 3b ae 52 f0 bd
       -0.039683536 0.023799935 0.0019926839 -0.1173452
000060 28 61 12 3e 14 ec 31 3e 31 17 b8 bc e9 57 39 3c
       0.14294875 0.17375213 -0.022471996 0.011312463
000070 74 19 fa bd d4 5d d0 bc 26 2b c4 3c b7 1f 50 3d
       -0.12211886 -0.025435366 0.023946356 0.050811496
000080 3b 40 0d 3e 6b 14 cf 3d f9 20 c6 3a 2b e3 95 bd
       0.13794033 0.10111316 0.0015116028 -0.073187195
000090 8b bf 68 bc ac cf 8a 3c 29 cd f2 3d 6e 77 93 3d
       -0.014205824 0.016944729 0.118555374 0.07200514
0000a0 11 20 21 3d 0d 11 e7 bd 07 22 9a bd 21 e3 4a 3d
       0.03933722 -0.11282549 -0.075260215 0.049533013
0000b0 9b 5e 1d 3d 83 72 10 be b8 ff d7 3c 3f df 82 3d
       0.0384203 -0.14106183 0.026367053 0.06390237
0000c0 aa cb 51 bd fb fe 8c bd ea 58 e4 3d 5c cf af 3d
       -0.05121962 -0.06884571 0.111497715 0.085844725
0000d0 22 fa 8c bd 9b 10 a7 bd 3b 3e 28 3e 32 dc ff bd
       -0.068836465 -0.08157464 0.16429989 -0.12493171
0000e0 23 05 bd 3d 0a fb 00 3d 84 32 11 3e b2 33 9f bc
       0.092294954 0.03148941 0.14179426 -0.01943383
0000f0 67 fe b8 3d 5e 67 e6 bd 1b 84 49 3d 0b eb 5b be
       0.090328984 -0.112501845 0.04919825 -0.2147638
000100 a7 f0 ae bd c6 98 64 bd ff 0f 78 3d 7e 57 1d 3c
       -0.085419945 -0.05580976 0.06056213 0.009603379
000110 46 cc 2c 3d ab 70 f7 bc b2 92 3d bc d8 0a 11 bd
       0.042186998 -0.030205091 -0.011570619 -0.035410732
000120 3e 3e 0e 3c 4c d0 14 3d 34 77 05 3e b0 a4 d3 bb
       0.008681832 0.03633146 0.13033754 -0.0064588413
000130 42 97 86 3d 82 d3 0f 3e 85 fe 6c 3d a3 ca 00 3e
       0.06571819 0.14045528 0.057859916 0.125773
000140 af 23 ed 3d 51 85 64 3d f3 00 65 3c 94 6d 83 3d
       0.11579072 0.055791203 0.013977277 0.06417385
000150 b4 75 ab 3d fb f7 d0 3d 70 69 ab bd 96 4e 34 be
       0.083720595 0.102035485 -0.0836972 -0.17608103
000160 1d d5 b7 3d a5 ad d3 3d d3 b0 ad 3d b0 81 58 3d
       0.08976195 0.103358544 0.08480992 0.052858055
000170 24 88 0d be b1 28 45 3c 26 1d 4a bc 11 b2 11 3e
       -0.13821465 0.012033627 -0.012336051 0.14228083
000180 98 f4 95 3d 4c 91 ef 3c e6 53 70 bb dc ea da 3c
       0.07322043 0.029244088 -0.00366711 0.026723318
000190 d0 0c cf 3b 36 25 8a 3c 61 61 df 3d 19 fd 54 3b
       0.006318666 0.016863447 0.109072454 0.003249949
0001a0 38 25 7e bc 02 af c9 bd 31 e7 7f bc 20 c7 03 3e
       -0.015511803 -0.09847833 -0.015619085 0.12868929
0001b0 dc ed a3 3d ee 83 af 3d 78 df 22 bd dd 9e cb 3d
       0.080043525 0.085700855 -0.039763898 0.0994241
0001c0 95 7f d9 3c 2f 6c b3 bd 4c 85 b1 3b ec 2f ac bd
       0.026550094 -0.08760869 0.0054175016 -0.08407578
0001d0 aa 3c 2a 3c 49 4c ea 3c 4d b5 a5 bd 9f 3e 71 3d
       0.01039044 0.028600829 -0.08091221 0.05889761
0001e0 22 30 8e bd 73 dc 5c bc 67 79 8f 3d 68 40 76 bc
       -0.06942774 -0.013480294 0.070055775 -0.015030004
0001f0 78 b5 ba 3c c8 11 96 bd 2f b1 6d 3d 77 90 1d 3e
       0.02279161 -0.0732761 0.058030304 0.1538714
000200 a2 37 a1 3d 5a 26 d4 3d e9 fe d7 3c 4b b0 bc bc
       0.07871939 0.103588775 0.026366668 -0.023033282
000210 09 f2 0a 3e d5 4a 1c 3e 80 0e 91 3c 6f da 1f bc
       0.13568892 0.15262921 0.01770711 -0.0097566685
000220 10 ac 9e bd cb 32 7d bd 7a e8 29 bd c5 7d 80 3c
       -0.07747662 -0.061816018 -0.041481473 0.015684972
000230 5b cc 97 3c 56 e2 a1 bb 90 e7 56 bd 33 8b 1e 3e
       0.018530061 -0.0049403114 -0.05246693 0.15482788
000240 11 79 05 bd 53 08 4f 3d 62 df ec 3c 51 44 cb 3c
       -0.03258616 0.050545048 0.028915111 0.02481285
000250 74 ad 93 3c 24 00 1f 3e 0d d2 fb bd 7f 46 b6 bd
       0.018027045 0.15527397 -0.122959234 -0.08900165
000260 f6 99 88 3d 66 89 1e 3d 4e ad 2b 3d 03 06 bd 3d
       0.06669991 0.038705252 0.041913323 0.09229662
000270 59 8b 33 bd 35 93 5b bd db 27 fa bb 26 37 ff 3d
       -0.043834064 -0.053607184 -0.0076341457 0.124616906
000280 26 48 8d 3d 37 0f f6 3d fe 77 db 3d 8b bd 24 3d
       0.06898527 0.12014621 0.10716246 0.040219825
000290 f4 d9 49 3d a7 1a 17 bd e7 05 16 3d 84 0b ce 3c
       0.049280122 -0.036890652 0.036626723 0.025151975
0002a0 19 d8 dd 3d f8 10 83 bd 95 45 20 3c af cd 9f bc
       0.10832233 -0.06399721 0.009782215 -0.019507257
0002b0 48 ae af bb 76 3b 1e bd b2 be bc 3a b8 01 13 3e
       -0.005361352 -0.038630925 0.0014400093 0.14356124
0002c0 68 76 9f bd 80 4d 2f bd 0e e6 2a 3e d4 92 82 3d
       -0.07786256 -0.04279852 0.16689321 0.063756615
0002d0 9c e7 54 3c ca f8 25 be e4 18 ad 3d c8 c3 b9 bd
       0.012994673 -0.16208187 0.08452013 -0.090705454
0002e0 27 fb bd bb c9 1b dc 3d f7 f1 8b 3d c3 7d 0a be
       -0.005797762 0.10747487 0.068332605 -0.13524537
0002f0 e6 d8 58 3d 45 eb d0 3a 0d cf 9f bd 2b de 41 be
       0.052941225 0.0015939256 -0.07803164 -0.18932407
000300 d7 98 06 3d 57 56 28 bd 43 9d cf 3d ec 0a 26 3e
       0.032860603 -0.041097965 0.10137417 0.16215104
000310 c7 1b db 3c 5c ae 8d 3d bb 62 aa 3c 35 d3 94 bd
       0.026746644 0.06918022 0.020799031 -0.07266847
000320 3d be ac 3d b2 d7 be 3d e2 6e 80 3d 4c 04 0e be
       0.084347226 0.09318484 0.06271149 -0.13868827
000330 65 99 f8 3c 01 1a 0e 3e f6 79 c6 3d 68 f6 48 bb
       0.030346582 0.13877107 0.09691231 -0.0030664448
000340 ce 3b e2 3d 89 a3 fb 3d f3 fe 13 bc 34 27 5e bb
       0.11046563 0.12287051 -0.009032953 -0.0033897879
000350 0d 1f d3 3c 68 60 d9 3d 84 cf 23 3d 17 bf 3a be
       0.025771642 0.10614091 0.039992824 -0.18236957
000360 d6 61 ac 3d a3 64 d0 3d d0 a1 69 bb 58 b0 b1 3d
       0.08417098 0.10175445 -0.0035649426 0.08676213
000370 26 09 ba bd 5c 6d 8e 3d 8a b1 76 bd 5d 20 e0 3d
       -0.09083776 0.069544524 -0.06022791 0.10943673
000380 d7 86 a1 3d 8f 61 ca 3d fc f2 77 3d 4c ba 7a 3d
       0.07887047 0.09881889 0.060534462 0.061212823
000390 94 f8 ae bd 75 dc 39 3e dd 08 04 3e 30 dc 07 3e
       -0.08543506 0.18150504 0.12894006 0.13267589
0003a0 94 d4 e8 bc df c4 05 be 5c c1 57 3c 0c 8a 69 bc
       -0.028421678 -0.13063382 0.013168659 -0.014254104
0003b0 7e 70 90 3d df 2c 01 3e 27 6b 42 be 0d 49 a7 bc
       0.07052706 0.12614773 -0.18986188 -0.020420576
0003c0 a4 6d 93 3c 83 42 ca bd 35 28 4d 3d 05 a6 cb bd
       0.017996617 -0.09875967 0.050087173 -0.09943775
0003d0 2a 84 8c 3d af 3d 1e bd f7 d0 e4 bd f1 49 58 bc
       0.06861146 -0.038633045 -0.111726694 -0.013201223
0003e0 0c 4d ed 38 54 64 fc bc cc 5c 6d 3c 2b 41 c3 3d
       0.00011315392 -0.030809559 0.0144874565 0.09533914
0003f0 6f 75 f0 3d 83 65 dd 39 a1 7c 36 3e c1 07 3a 3d
       0.11741149 0.00042228037 0.1782098 0.04541755

fc2.bias f4 [128]
000000 bc 63 4b ba d4 fb 77 3c bc d5 c3 bc 9e a2 01 3d
       -0.0007758697 0.015135724 -0.023905627 0.031649224
000010 c3 88 8c 3d 8b 44 d5 3d 4f d2 87 3d a6 ce cc bc
       0.06862023 0.10413464 0.0663191 -0.025000881
000020 08 5c 80 bd e0 b4 e5 bc 1d c1 03 3e c1 97 c3 3d
       -0.062675536 -0.02804035 0.12866636 0.09550429
000030 43 b7 79 bc a8 ec d7 bc 41 94 0d 3e 75 e8 59 bd
       -0.015241447 -0.026357964 0.13826086 -0.053200204
000040 88 8a c6 bc 54 d6 1e bd 71 0e 69 bd 14 37 8b 3d
       -0.024235979 -0.038778618 -0.056898538 0.06797615
000050 5b ba f2 3d 14 d6 0c 3d 74 79 0c 3d 97 29 d7 3d
       0.11851951 0.03438385 0.034295514 0.105059795
000060 87 1b 75 3d 0a a8 61 3d 42 4b f1 3d 79 d8 ee 3d
       0.059840705 0.055091895 0.117819324 0.11662383
000070 c9 35 85 bd c2 86 9a 3c 74 70 56 bd ec 7a 2d bd
       -0.06504399 0.018863086 -0.052353337 -0.042353556
000080 3e de 80 bd 31 bd b4 3c 99 58 33 3d e4 70 80 3c
       -0.06292389 0.02206287 0.043785665 0.01567883
000090 a4 0a 13 3e 15 8a aa bd 85 67 f7 3d b8 bb 4b 3c
       0.14359528 -0.08327118 0.12080292 0.012434892
0000a0 2a 57 0b 3e 02 8a ca 3d 99 0e ee 3d e7 b6 c3 bc
       0.13607469 0.09889604 0.11623878 -0.023890926
0000b0 89 36 03 3d 73 f8 e9 3d 8d df e8 3d 6a ef 0d 39
       0.03203443 0.11424341 0.11370764 0.00013535997
0000c0 2a b4 2a 3e b0 9c a6 bd 50 d8 fc bc 11 03 94 3d
       0.1667029 -0.081353545 -0.030864865 0.07227147
0000d0 3f e3 69 3d 39 0f 53 bc 08 24 9a bd 9c d6 0a 3e
       0.057101484 -0.012882047 -0.07526404 0.1355843
0000e0 1e ee 52 3d 9c 38 f3 3c 55 17 cc 3d 26 4d b1 3c
       0.051496617 0.02969008 0.09965388 0.021643233
0000f0 13 00 cb 3c ed b6 cc 3c 67 dd 25 3e c9 5e 8a 3d
       0.024780309 0.02498957 0.1619774 0.0675636
000100 ac d5 1a 3d 39 58 23 bc 25 e6 a1 3c ca 4d 8c bd
       0.03780143 -0.009969764 0.019763062 -0.068507746
000110 c6 68 00 3d e5 31 c7 bc 90 5c b4 3c 5f 62 2d bc
       0.03134992 -0.024315784 0.022016793 -0.0105825355
000120 c2 4c f9 3d 40 a7 da bb d8 4b 08 3e ca d2 68 bd
       0.121728435 -0.00667277 0.13310182 -0.05684165
000130 a1 f6 22 3d b6 43 92 bd b5 bc 16 3e 08 af ca 3c
       0.039785985 -0.07141821 0.14720424 0.024741665
000140 e0 d3 30 3d 3d d8 a7 bb 8b f7 3d 3d 07 b9 3e bd
       0.04317081 -0.005122213 0.046378653 -0.046563175
000150 9a 42 9e 3d 04 da 08 3e d8 8a a7 bd 37 55 11 bd
       0.07727547 0.13364416 -0.08180779 -0.035481658
000160 db 24 43 b8 e6 e4 3a bd 2e 31 4f 3d dd 8a 7f bc
       -4.6525947e-05 -0.04562845 0.05058401 -0.015597072
000170 d5 49 22 3d 98 b3 6e bd 49 02 c6 bd 24 c1 16 3d
       0.039621193 -0.058276743 -0.096684046 0.036805287
000180 fc de 56 bd e9 3a ad 3d f9 7a 89 bc 96 84 29 3e
       -0.05245875 0.08458502 -0.01678227 0.16554484
000190 87 f2 a4 3d 96 dd f2 bc dd 75 b4 3c 89 00 11 3e
       0.08054071 -0.029646676 0.022028858 0.1416036
0001a0 5a f1 07 3e 7a e8 11 3e dc e7 7f bd 53 da 80 bc
       0.13275662 0.14248839 -0.062476978 -0.015729105
0001b0 81 50 48 3d 21 8a b7 3d 7f 75 40 bd 6c 05 72 3c
       0.0489049 0.08961893 -0.046987053 0.0147718005
0001c0 f0 c4 d9 3d c8 ba a7 3d b6 af 0e 3e 73 a1 af bc
       0.10633266 0.081899226 0.13934216 -0.02143929
0001d0 9d 29 b4 3c 2a b1 33 3c 33 ae 26 3d c4 c2 14 3d
       0.021992499 0.010967532 0.040693473 0.036318555
0001e0 20 1b eb 3d 95 1f 9f 3d 4a 6a 8e b8 19 55 3f 3d
       0.11479783 0.07769696 -6.7908855e-05 0.046712015
0001f0 31 d4 8d 3d 9f d9 a4 3d 80 c1 82 bd bf dd bf 3d
       0.06925238 0.080493204 -0.063845634 0.093684666

fc3.weight f4 [2, 128]
000000 16 1e b4 3d b0 e1 23 3e 50 35 19 bd 0b 89 a1 bd
       0.08794801 0.16004062 -0.03740436 -0.07887467
000010 51 96 11 be 40 11 f1 3d b9 5e a9 bd db 91 af 3d
       -0.14217497 0.11770868 -0.0827002 0.085727416
000020 80 0c e7 3a 97 62 14 bd 59 27 1f 3e ae e3 28 3e
       0.0017627627 -0.036226835 0.15542354 0.16493103
000030 cb ad 0c 3d 98 b7 55 3c 8a 27 94 3d 10 70 8d 3c
       0.03434543 0.01304426 0.07234104 0.01726535
000040 b7 ab 80 3c 27 e3 d7 bd d6 94 b0 bd 7a a8 08 bd
       0.01570688 -0.10541373 -0.08622138 -0.033363797
000050 0b 62 0e 3e 97 2d 34 bd 0c 49 ff 3d fc d9 2e 3d
       0.13904588 -0.04398879 0.124651045 0.042688355
000060 3b 54 3a 3e 4e ad a3 bb fb 80 0c 3e e6 fa 0d 3d
       0.18196194 -0.0049950248 0.13721077 0.034663104
000070 54 60 a5 bd 27 e9 31 3d 20 4a 06 bb 8b 50 91 3d
       -0.08075014 0.043435242 -0.002049096 0.070954405
000080 84 9c 34 bd f6 5c bb bc 24 f0 d1 bd 90 09 d3 bd
       -0.044094577 -0.022871476 -0.10250881 -0.10304558
000090 ce 0a 08 3e 97 57 d3 bd ed 69 09 3e ed 38 23 bd
       0.13285372 -0.10319441 0.13419314 -0.03984921
0000a0 69 a2 02 3e 8e 44 d8 3d 72 23 c7 3d ed 67 0d bd
       0.12757267 0.10559951 0.097235575 -0.03452294
0000b0 9c 59 1b be 00 3f 90 3d 58 9d 9b 3d 04 bc c2 3c
       -0.15170902 0.07043266 0.0759837 0.023771293
0000c0 50 ae 88 3d 81 f8 af 3d 7c 42 95 3c 74 19 c2 3d
       0.066738725 0.0859232 0.018220179 0.09477511
0000d0 1c bd a7 bd 9e 7d 6c bd 54 4d 89 bc 39 b0 30 3e
       -0.081903666 -0.057736985 -0.016760506 0.17254724
0000e0 93 34 dd 3d d0 04 a3 bb 0c 86 45 3d 85 ca cb bd
       0.10801043 -0.004974939 0.04822354 -0.09950737
0000f0 0c 2a fc 3d 49 68 24 3d 48 1e b2 3d 7f 8d d8 3d
       0.12312707 0.040138517 0.08697182 0.10573863
000100 a2 f4 34 bc a3 23 87 bd f6 f7 1a 3e 61 d4 54 bd
       -0.011044653 -0.06598594 0.15133652 -0.051960353
000110 25 9b 0d 3e c3 66 0d be 68 71 9b bd 68 23 fa bd
       0.13828714 -0.13808732 -0.0758999 -0.122137845
000120 cd c1 ef 3d a5 f7 80 bd 59 05 29 3e 4c b3 70 bd
       0.117068864 -0.062972344 0.16505946 -0.05876474
000130 5b 3f d8 3d 7b 05 d3 3d 08 7d 08 3e 45 99 0e be
       0.10558959 0.1030378 0.13328946 -0.13925655
000140 78 f3 f7 bd d2 84 ea bc 66 34 4e bd ad 9a 10 3d
       -0.12106985 -0.028627787 -0.05034294 0.03530376
000150 8b 27 1f be 3e ab e4 3c 00 20 d5 37 ca e8 c0 bd
       -0.15542428 0.027913686 2.540648e-05 -0.09419401
000160 6c b6 24 3e f9 7f 1a bd 40 1e dd ba 58 0d 25 3c
       0.16085213 -0.0377197 -0.0016869977 0.010073982
000170 94 47 19 3e c1 3c e7 bd 83 1b 8f 3d 3e e0 a7 3d
       0.14968711 -0.11290885 0.06987669 0.08197068
000180 26 8a dc bc 48 f7 a6 3c 16 a3 93 3a 3d fe d1 3d
       -0.026921343 0.020381585 0.0011263813 0.1025357
000190 7d e0 20 3e f1 2b 99 bc c8 90 92 bd 3a 1b b3 3d
       0.15710635 -0.01869771 -0.07156521 0.087454274
0001a0 58 ea 37 3d ea 13 5e 3c bf 78 e7 bd e9 f8 07 be
       0.044901222 0.013554553 -0.11302327 -0.13278545
0001b0 37 8f 35 bd de bd 06 3e d2 30 01 be 9d 51 3e bd
       -0.044326033 0.13158366 -0.1261628 -0.04646455
0001c0 7a 06 fc 3d 49 aa b2 3d ef a4 22 3e 09 59 88 bd
       0.12305923 0.087238856 0.1588323 -0.06657607
0001d0 1f 97 33 3e 40 7e 9a bb e3 fe 02 3e 3d 4e 01 3e
       0.17538117 -0.004714757 0.12792544 0.12627502
0001e0 eb 62 e3 3d 58 9a 2f 3e f7 87 00 3e 52 b8 2a 3e
       0.111028515 0.17148721 0.12551866 0.16671875
0001f0 22 1b 90 3b 8b e6 32 3e 9c 5b 8f bc 0b d1 15 3d
       0.0043977657 0.17470758 -0.017499737 0.036576312
000200 54 09 da 3d b6 c4 7a 3d 52 d6 4e 3d fa 17 a1 3d
       0.106463104 0.061222754 0.05049736 0.07865901
000210 e7 f8 82 bd 16 e0 f1 3d ea 31 0e be 6a c9 98 3d
       -0.063951306 0.11810319 -0.13886228 0.07460292
000220 ce 1b 56 3d 35 54 11 be 32 7f 26 3e df d4 1b 3e
       0.05227261 -0.14192279 0.16259459 0.15217923
000230 a0 a2 1e be 7b f3 04 bc 0d 49 b9 3d 3d db 88 bd
       -0.15491724 -0.008114691 0.090471365 -0.066824414
000240 87 c3 6a bd 41 5f 09 be 61 30 7b bd 56 2e 9c bd
       -0.057315376 -0.13415243 -0.061325435 -0.076260254
000250 d1 59 22 3e cc c3 13 bd 13 45 09 3e 30 5e ee 3d
       0.15854575 -0.0360754 0.13405256 0.116390586
000260 23 90 7e 3d db 20 71 bd 93 de 2f 3e d9 e7 21 3e
       0.06214918 -0.058869224 0.17174749 0.15811099
000270 86 3c a8 3d cb 5e db 3d 80 a3 b8 bc 20 eb 85 bc
       0.08214669 0.1071144 -0.0225389 -0.016347468
000280 42 8c 12 be df 46 95 bd 11 db 6c 3c 12 5a 9d bd
       -0.14311317 -0.07288908 0.014456526 -0.07683195
000290 aa 26 a3 3d b5 c2 d2 bd 90 69 d6 3c 89 30 89 bd
       0.07966359 -0.10291044 0.026173383 -0.066987105
0002a0 63 c8 e5 3d 6c a3 26 3e 50 6c a6 3d 75 ef 52 bd
       0.11219861 0.16273278 0.08126128 -0.051497895
0002b0 fe 30 4d 3a d8 96 05 3e ab 7e e5 3d 5a c3 1e be
       0.000782743 0.13045824 0.112058006 -0.15504208
0002c0 6d a0 09 3e 14 b8 d1 bc 00 4f e2 bb 95 a4 ef 3d
       0.13440104 -0.02560047 -0.00690639 0.117013134
0002d0 cd 69 66 bd 3e c3 16 be a4 a0 d4 bd 44 6b 85 3d
       -0.056253243 -0.14722916 -0.10382202 0.065146
0002e0 28 57 8f 3d 0c de 3a 3d 34 08 18 be 84 0b b7 bd
       0.069990456 0.045621917 -0.14846879 -0.08937743
0002f0 b6 b6 27 3e f8 68 71 bc c2 68 b8 3d 94 05 03 3e
       0.16378292 -0.014734499 0.09004356 0.12795097
000300 ab 0d a3 bd 38 86 11 bd dc 8d 61 bd c8 f4 d6 3d
       -0.07961591 -0.03552839 -0.05506693 0.10495907
000310 cf d6 9e 3d ce af ff bd 00 91 a6 3a 33 0e 60 bc
       0.07755815 -0.12484704 0.0012708008 -0.01367526
000320 b2 87 51 3d b4 96 ac bc 95 c3 29 3d 92 7d 77 3d
       0.0511548 -0.021067955 0.041446287 0.060422488
000330 12 47 33 3e ff be d5 3d ad d8 1a 3e c4 35 ff 3d
       0.1750758 0.1043682 0.15121718 0.12461427
000340 a0 6c fc bd 1f 88 c1 3d a5 f7 79 bd 44 48 d8 bd
       -0.12325406 0.09449791 -0.061027188 -0.105606586
000350 86 61 84 bd 63 71 22 3e 01 3a 9f 3d 65 6c a6 3c
       -0.064639136 0.15863566 0.07774735 0.020315358
000360 d4 b7 06 3d d3 8e 28 be b8 ac ff 3c 33 8b 47 bd
       0.032890156 -0.16460733 0.031210288 -0.048716735
000370 eb 83 aa 3c 7a 48 c9 bd 2a 6c b4 bd d8 19 eb 3d
       0.020814857 -0.09828277 -0.08809693 0.11479539
000380 5f 05 93 bd 00 a0 02 ba 72 af 76 bd 46 cf b6 3d
       -0.07178759 -0.00049829483 -0.06022591 0.08926253
000390 90 ef 30 3e a3 29 b4 bc a5 5e ed bd 85 54 06 3e
       0.17278886 -0.02199251 -0.11590318 0.13118179
0003a0 ab d3 2c 3e f7 c0 2e 3e f5 30 10 be c8 a2 d5 bd
       0.1687762 0.17065798 -0.14081176 -0.10431439
0003b0 15 41 ab 3d 17 06 e1 3d a8 05 9e 3b 86 b1 0d be
       0.08362023 0.1098749 0.0048224516 -0.13837251
0003c0 71 9c 10 3e b2 80 ed 3d ca 99 05 3e 69 d9 bc bd
       0.14122178 0.11596812 0.13046947 -0.09221155
0003d0 69 73 c6 3d d1 85 93 bd 26 2e 86 3d 59 66 fa 3d
       0.096899815 -0.07203258 0.06551771 0.122265525
0003e0 f4 a6 1e 3e 88 4a 62 3d 53 e1 29 3e 11 92 17 3e
       0.15493375 0.05524686 0.1658986 0.14801814
0003f0 5b ac 4e bd 95 dd 2d 3d 39 e1 9f bd 6f 16 23 3e
       -0.05045734 0.042447645 -0.0780663 0.15926526

fc3.bias f4 [2]
000000 cb ce a3 3d 6f a5 8c 3d
       0.07998427 0.068674915
